results/SGC_1/checkpoint.pt (torch, 38959 bytes, 6 tensors)

conv1.lin.weight f4 [128, 3]
000000 ed 02 f4 be 92 a7 85 3e 8a e7 e5 be a3 73 0a bc
       -0.47658482 0.26104409 -0.44903213 -0.0084504215
000010 06 c7 f7 3e 50 c5 d3 3e e5 8c eb bd dd b0 f1 3d
       0.4839403 0.41361475 -0.11501483 0.11801312
000020 fe 97 c7 3e be 7f b9 3e fa 00 06 bd 2b 12 98 3e
       0.38983148 0.36230272 -0.032715775 0.2970136
000030 80 07 8b bb e9 5e 98 be 2c ec 69 3e 60 90 09 bd
       -0.0042428374 -0.2975991 0.22843999 -0.033584952
000040 3c 22 a4 be 48 9d 8f bd 34 42 d0 3e 9d ea 45 3e
       -0.3205737 -0.07012421 0.4067551 0.19327779
000050 45 c9 f2 3d 71 ba 81 be 91 4d 0a 3e f4 9a 1b 3f
       0.11854795 -0.25337556 0.13506152 0.60783315
000060 7f ee a8 3e a2 65 b8 be cc a8 59 be 83 76 a1 3d
       0.32994458 -0.3601504 -0.21255797 0.078839324
000070 84 64 d5 be 41 da 0a bf 8d e4 c3 3e 55 ce 94 3e
       -0.4167825 -0.5423928 0.38260308 0.2906367
000080 43 6b e4 be aa b1 b8 be 73 04 9f 3e e8 56 12 3d
       -0.44613084 -0.36073047 0.31058082 0.03572741
000090 35 b7 e7 3d 60 30 94 3e 5d 4c 01 3d 37 17 b9 be
       0.11314241 0.28943157 0.031566966 -0.36150524
0000a0 45 1e dc be bf 76 2d 3f 81 d7 de 3e 31 de 7d 3e
       -0.42991844 0.6775932 0.4352379 0.2479179
0000b0 22 95 0c 3e a3 05 13 3e c2 f5 19 bf 6a 00 22 bd
       0.13728765 0.14357619 -0.6014062 -0.039551176
0000c0 4b 08 13 3e d1 fb db 3e a3 49 ce 3e 41 a9 e3 3b
       0.14358632 0.42965558 0.40290555 0.006947667
0000d0 79 ef 6c bf a3 87 eb be 84 6d a9 be 74 f5 a6 be
       -0.92552906 -0.4600192 -0.33091366 -0.3260914
0000e0 43 ec c0 bd 2f b4 19 be d9 1b 17 3e c0 16 d8 bd
       -0.09420063 -0.15010141 0.14756717 -0.10551214
0000f0 7d d1 eb 3e bd 40 6e 3e 03 a8 9a 3d a5 5d e4 bc
       0.46058264 0.23266883 0.07551577 -0.027876684
000100 9a 70 1f 3e aa a4 36 3e fe 82 b6 3e 5a 1e 69 3e
       0.15570298 0.17836252 0.35646814 0.22765484
000110 49 04 cb be 0a c2 21 3f c9 3a 18 3f 94 12 f7 3e
       -0.39651707 0.63186705 0.594647 0.4825636
000120 b1 33 8f 3d 3c 85 4f 3e 5f bb 80 3d 9c 6e 59 be
       0.06992281 0.20265669 0.06285738 -0.212336
000130 a2 f8 80 be fa 35 25 3f 3a 9a cb be a7 f4 c0 3e
       -0.25189692 0.64535487 -0.39766103 0.37686655
000140 ea d8 02 be 29 68 0b 3e ae 98 9a 3e e9 4e e8 3e
       -0.12778059 0.13613953 0.3019461 0.45372704
000150 a3 9e f8 be f1 9f 3d bc 41 7f 08 bf 47 fa 70 3e
       -0.4855853 -0.0115737775 -0.53319174 0.23532973
000160 e7 27 55 3d a9 6e 82 3e 75 aa 76 be c8 b7 79 bf
       0.052040007 0.25475052 -0.24088462 -0.9754605
000170 6e f9 02 3f 47 5c ea 3e ff 61 10 bd 57 39 a4 bc
       0.5116185 0.45773527 -0.035249706 -0.020046873
000180 79 59 8b be 03 2f d4 bd 7b 83 e8 be cb d1 2a 3e
       -0.272167 -0.10360529 -0.45412812 0.16681592
000190 f5 c2 0d 3e 7a 86 7c 3e 32 9a e3 be ef cc 02 bf
       0.13843901 0.24660674 -0.4445358 -0.51093954
0001a0 b3 a9 b6 be c2 aa c7 3e f4 3d 8b 3e 69 7a 11 3e
       -0.35676345 0.38997465 0.27195704 0.14206852
0001b0 3c 2b e0 3e 77 c2 c7 3e 41 54 95 3e c0 99 2b 3c
       0.43782985 0.39015552 0.29165843 0.010473669
0001c0 22 83 7e be 2e e7 0e 3f f2 6f 74 be 9a 6b ae be
       -0.2485471 0.558215 -0.23870829 -0.34066468
0001d0 80 06 ac bb 32 ad a3 3e cb a2 69 3e af 44 65 3d
       -0.0052497983 0.31968075 0.22816007 0.055973705
0001e0 7e 2f c0 3e c6 8b 5a 3e 69 5b 04 3e 88 4a e6 3e
       0.37536234 0.21342382 0.12925495 0.44978738
0001f0 51 f4 04 3f 42 35 39 3d 11 e9 f9 3e 64 56 35 3e
       0.519353 0.045216806 0.48810628 0.17708737
000200 0c 8a 50 be 71 b9 fe be 64 dc 97 bd ff ed c1 be
       -0.2036516 -0.49750856 -0.07415083 -0.3787689
000210 96 75 f7 be 7b d6 0a bf 9b d7 c2 3e 8c f6 5a be
       -0.48331898 -0.5423352 0.3805512 -0.21383113
000220 6f 04 ba bd a1 2e e7 be c7 3a d9 3d 2a 20 2b bc
       -0.09082877 -0.45152763 0.10606914 -0.01044468
000230 1f 09 7c bd dc 2e cf be 20 0c a3 be af e5 ae be
       -0.061532136 -0.40465438 -0.31845188 -0.3415961
000240 a5 4a cf be 14 9d 06 be f9 8a 2e 3e c2 d9 a0 3e
       -0.40486637 -0.13145858 0.17045201 0.31416136
000250 cb 8a 45 be 4c 7e 89 3e 70 99 3b bd 3b 4d bf be
       -0.19291227 0.2685417 -0.045800626 -0.3736361
000260 11 04 be 3e b8 48 0c bf af a8 09 bf d8 ae eb 3c
       0.37112477 -0.5479846 -0.53773016 0.028769895
000270 01 3f ce be 67 f8 08 3f b5 5f 16 be 16 ea 3c be
       -0.40282443 0.5350403 -0.14684947 -0.18448672
000280 57 12 46 3d a4 b6 0c 3e ee 35 61 3c 3f b3 e6 3e
       0.048357334 0.13741547 0.013745768 0.4505863
000290 56 09 48 be 16 56 1f 3f da 9d 1b 3f 85 b3 f6 3e
       -0.19534811 0.6224073 0.6078774 0.48183838
0002a0 1c e0 c7 bd 08 14 b4 3d 62 a2 e0 bc 58 ca cd 3e
       -0.09759542 0.08792883 -0.02742118 0.4019344
0002b0 0f 98 06 3f 39 4e 92 be b0 47 18 be 93 a7 b8 3e
       0.52575773 -0.28575304 -0.14871097 0.3606535
0002c0 d4 58 93 3d 9a 96 02 3f 5c c3 02 3f 21 6e ac bd
       0.07194677 0.5101105 0.51079345 -0.08419443
0002d0 ca 6a e1 be ae 81 af 3e 80 76 ed be 3d 95 ad bd
       -0.44026786 0.34278625 -0.4637947 -0.084757306
0002e0 3e db 48 be 3f b6 d5 3d e2 4e 08 3f 92 d8 04 3f
       -0.19614884 0.10435151 0.53245366 0.5189296
0002f0 d2 73 84 bd 6e 44 c6 be 00 19 e7 be 0f de 0a bf
       -0.064674035 -0.38724083 -0.4513626 -0.54245085
000300 00 82 f4 3e cc dc e6 3e 9c 46 4f bd ab 3b e1 3d
       0.47755432 0.4509033 -0.050604448 0.10997709
000310 1d 21 03 3f c3 64 2b 3e 57 2b 46 3c d9 2f 3a be
       0.512224 0.16737656 0.012095294 -0.18182315
000320 b9 74 b3 be b2 dd ff 3e 5c 2c f3 3e d6 25 9c 3d
       -0.3504999 0.49973828 0.4749478 0.07624404
000330 a7 3f 2f bf d0 75 c7 3e 43 1c f2 bd 9c ef 25 3f
       -0.684565 0.3895707 -0.11821797 0.6481874
000340 80 0b 20 3f d0 30 f3 3e f8 31 ec 3e 95 12 e9 3e
       0.6251755 0.47498178 0.46131873 0.4552199
000350 b1 8b af 3e c7 93 ef be 12 75 a9 be 89 01 c3 be
       0.34286264 -0.46792433 -0.3309713 -0.3808711
000360 a0 86 1f 3e e0 72 6c bd cf 13 a4 3e a7 64 9c be
       0.15578699 -0.05772674 0.32046363 -0.30545542
000370 bd d9 f1 3e 31 88 07 3d 40 94 a8 be b9 a0 1b 3e
       0.47236434 0.033088867 -0.32925606 0.1519803
000380 6c e6 b8 be 1b 30 45 be da fb 23 bb b2 54 24 be
       -0.36113298 -0.19256632 -0.0025021941 -0.16047934
000390 da 17 60 be c0 6e b3 3d 33 0d cd be d9 5f 08 bf
       -0.21884099 0.08761358 -0.40049133 -0.5327125
0003a0 f5 b2 41 bd dd cc 43 3e 0c 8c 1e 3f a0 03 1c 3f
       -0.047289807 0.19121118 0.61932445 0.6094303
0003b0 67 28 e0 3e cb 7a 9a be b6 57 1a 3f 56 0c 06 bf
       0.43780825 -0.3017181 0.60290086 -0.52362573
0003c0 74 0f ec be a4 86 95 be 6f 80 21 be 4d 79 08 3e
       -0.4610554 -0.29204285 -0.1577165 0.13327523
0003d0 f9 74 1c be 5c 19 81 be ac fb 61 be 3f 3c 7d be
       -0.15278997 -0.2521466 -0.22068661 -0.24730013
0003e0 51 b3 8f be 19 31 f9 be 27 11 84 3c b2 57 b3 ba
       -0.28066495 -0.4867027 0.01612146 -0.0013682751
0003f0 c1 54 17 be e8 47 4e bd e6 28 04 3f b7 98 d0 3e
       -0.14778425 -0.050361544 0.51624906 0.40741512

conv1.lin.bias f4 [128]
000000 b8 21 f1 3e c3 36 01 bf 6a a9 21 3e 1f 7b 25 bd
       0.47096038 -0.50474185 0.15787283 -0.04040062
000010 36 8a de be b9 65 8a be 00 d2 5b be 6c 90 da 3e
       -0.43464822 -0.27030733 -0.21466827 0.4268831
000020 11 2b 5d 3e 39 76 4a 3e 05 ea 7d 3e 30 71 c7 3e
       0.2159846 0.19771661 0.24796303 0.38953543
000030 73 31 e5 3c 7b 60 82 3e 24 ea 6b be 7d 1f a7 3e
       0.02797768 0.25464234 -0.23038536 0.3264121
000040 aa 71 2d 3e 45 3f 8e 3d 63 54 a8 3e 4e e6 3c 3e
       0.1693789 0.069456615 0.32876882 0.1844723
000050 80 2c 1d be 17 92 1a 3e 2d 62 b2 3e 18 17 22 bf
       -0.15349007 0.15094791 0.34840527 -0.6331649
000060 a6 4e 50 bd ed f4 8b be 86 4c fd 3e f0 5b 99 3e
       -0.050856255 -0.273353 0.49472445 0.29952955
000070 3b 47 01 3f 69 19 9b bd 48 00 ac 3e b3 c8 b3 bd
       0.50499314 -0.07573206 0.33593965 -0.08778515
000080 22 19 c3 3e f1 62 80 3e 2f 74 fe be ac da b3 be
       0.38105112 0.25075486 -0.49698016 -0.3512777
000090 22 f8 e0 be 2b d8 ed bd 00 3f 3a bb 2f 90 05 be
       -0.4393931 -0.116134964 -0.0028418899 -0.13043283
0000a0 5b 56 93 be a5 2d e7 be e5 d7 64 be d7 46 ff 3e
       -0.28776821 -0.45152012 -0.22347982 0.49858734
0000b0 3e 22 a2 3e ea ac 61 3e df d6 2a bb d8 cd 16 be
       0.3166675 0.22038618 -0.0026068015 -0.1472696
0000c0 bc 7a 3b 3d 66 68 92 3d 08 c3 eb be 4f 5a 94 bd
       0.045771345 0.07148819 -0.46047235 -0.072437875
0000d0 68 29 eb 3e 10 88 49 3e 51 d8 d0 3d 0a c6 21 bf
       0.45930028 0.1968081 0.10197509 -0.6319281
0000e0 54 28 41 3c 82 87 a3 3e d7 d3 10 3e 05 7c 06 bf
       0.0117894 0.31939322 0.1414331 -0.5253299
0000f0 16 ec e0 3e c7 86 a7 3e 26 bf 05 bf 56 d3 69 be
       0.4393012 0.32720014 -0.52244794 -0.22834525
000100 2a b3 f7 be 11 47 05 bf 05 42 88 3e 80 3e 03 bf
       -0.4837888 -0.52061564 0.2661287 -0.5126724
000110 dc 63 2a 3d eb e9 26 bf c9 00 ec be fc d7 f1 3e
       0.04159914 -0.6520068 -0.4609435 0.47235096
000120 15 39 f1 be 7d 20 c9 3e 85 98 b0 3e 80 ba af 3a
       -0.47113863 0.392826 0.34491363 0.0013407022
000130 4f 6f a1 be 72 de 07 3f 2d c8 1e bf 6f 8c b1 3e
       -0.31530234 0.530738 -0.62024194 0.34677455
000140 26 fb f1 3e 15 e2 be be 27 ca 89 3e 1b be 04 3f
       0.47261924 -0.37281862 0.26912042 0.5185258
000150 a9 3e 9d 3e 4b ed 00 be b7 c4 e7 be 8f a3 7c 3c
       0.30711868 -0.1259052 -0.4526727 0.015419855
000160 9e 05 bd 3c ba 29 25 3e d2 46 63 be c1 ef bf be
       0.023073968 0.16129199 -0.22194985 -0.37487605
000170 a5 6f f7 3e 05 aa c9 3e 33 33 4c be 4f 18 b0 3d
       0.48327366 0.39387527 -0.19941406 0.085983865
000180 46 28 27 3e fa 8d 98 be 24 68 e9 bd ba c4 0c bc
       0.16323957 -0.2979582 -0.113968164 -0.008591825
000190 86 48 c1 be 0b a5 9a be a5 3a de 3d 19 9f 8f 3e
       -0.37750643 -0.30204043 0.10851029 0.2805107
0001a0 43 32 ad 3d 06 9d 81 3e 64 c4 a3 be 15 9f 8c bd
       0.08456852 0.25315112 -0.31985772 -0.0686628
0001b0 ce 47 cb bd a2 9d 72 be 9d d3 0b bf 6e c5 c4 be
       -0.09925805 -0.23692945 -0.5461977 -0.38431877
0001c0 27 97 ae 3e 21 06 98 3e a8 a0 ad 3e dd 64 80 be
       0.34099695 0.29692176 0.33911633 -0.25076953
0001d0 92 bd dc 3e 5c 89 a7 3c 39 dc e4 3e 46 96 d7 bb
       0.4311338 0.02045124 0.44699267 -0.0065791933
0001e0 ec f3 91 3e fd 9e 1d 3d 91 6e 22 3e 0b c6 e2 3e
       0.2850641 0.0384817 0.1586249 0.4429172
0001f0 9d 22 95 3e 50 5a 49 bd 49 67 50 be 29 c8 88 be
       0.2912797 -0.049158394 -0.203519 -0.2671521

conv2.lin.weight f4 [64, 128]
000000 3a 6b 9a bd 05 23 8f bb 72 94 6d bd b0 70 83 bc
       -0.07539983 -0.0043681883 -0.058002897 -0.016044945
000010 7c ec 43 bd cc eb d4 3c 4b 32 d6 bd d9 71 58 bd
       -0.04783295 0.025991343 -0.10458811 -0.05284295
000020 cf 67 1c bd 30 57 b5 3d 56 dc c7 3b 9e 5b 29 be
       -0.038184937 0.0885452 0.006099264 -0.16538855
000030 bf 3a 18 bc 8c 1d db 3d fd 93 31 3d 2b 01 57 bc
       -0.00929135 0.10698995 0.043354023 -0.013122837
000040 27 8b 8a bd ea 90 b1 3d 00 21 9d be 86 82 37 bd
       -0.067648225 0.08670218 -0.3068924 -0.04480221
000050 fc d9 21 bd 2d a6 a0 3d ce 00 fc bc e6 39 65 bf
       -0.039514527 0.078441955 -0.030762102 -0.8954147
000060 2c f8 89 3c 8d 49 a0 3d c7 87 8c bd 9a 37 99 bb
       0.01684197 0.07826529 -0.06861835 -0.0046758177
000070 8e 9f b6 be b1 43 02 3c 37 f0 a6 3d 48 1f a9 bd
       -0.35668606 0.007950709 0.08151286 -0.082579195
000080 39 30 ed 3c 5e be 8b bc d0 bb 53 bd 43 77 90 bd
       0.028953658 -0.017058548 -0.051692784 -0.07053997
000090 88 81 c7 ba 37 6c 9f bc be e3 62 3d 5e e9 18 3d
       -0.0015221098 -0.01946078 0.055392973 0.03733193
0000a0 2c 80 8d 3d e1 b3 96 be 55 d4 23 bd e3 48 55 be
       0.069092125 -0.29434112 -0.039997417 -0.20828585
0000b0 0d 03 88 3c c9 22 54 bd 79 7b c3 3c 1d 22 93 3d
       0.016603017 -0.051790986 0.023862587 0.07184241
0000c0 f5 79 47 3c eb 12 d6 bd 8b 5b 89 3d 81 19 9a 3d
       0.012175073 -0.10452827 0.067069136 0.07524396
0000d0 e0 d4 8c bd 99 14 7f bd 38 fe c9 bd 7c 3e 56 bf
       -0.0687654 -0.062275503 -0.098629415 -0.83689094
0000e0 a8 b0 32 3d 13 c2 bf bd 74 ce 8e bc 97 f9 f9 be
       0.043625504 -0.093631886 -0.017432429 -0.48823234
0000f0 7c dc 99 bd b3 a6 8f 3d d2 e6 9f bf 20 ac 08 bb
       -0.07512757 0.07014217 -1.2492316 -0.0020854548
000100 1f bf 3c bf 57 70 6a bd 25 c6 b1 bc da 74 8c bf
       -0.7372913 -0.057236042 -0.021700928 -1.097316
000110 cf d9 02 3e c0 e8 76 bf 1f 06 c4 be d1 54 0d bf
       0.127784 -0.964489 -0.3828592 -0.55207545
000120 59 b1 a7 bd aa c6 7f bd e1 4d 85 bd 19 43 aa 3c
       -0.08188123 -0.06244532 -0.06508995 0.020783948
000130 ce a1 49 3d 68 97 29 be a9 56 32 bf da 33 33 3d
       0.049226575 -0.16561663 -0.6966348 0.04375062
000140 b4 77 a0 be 2f 5e 80 3d b7 45 bc bc c2 b5 2c be
       -0.31341326 0.06267964 -0.022982461 -0.1686621
000150 f9 83 65 3d 02 5e 93 bd b3 1f f1 be d8 8e 28 3d
       0.056034062 -0.07195665 -0.47094497 0.04115185
000160 40 01 ec 3a 4e 75 ee 3c db c1 b8 be 74 2a b1 bd
       0.0018005744 0.02910867 -0.360854 -0.086506754
000170 8c 03 f4 be 39 48 95 3d a3 c7 56 be 4e 39 5d bd
       -0.47658956 0.07289166 -0.20974593 -0.054009728
000180 ce b3 7f bb 1e 4e 42 3d 2f 4f 09 3d 61 61 81 3c
       -0.0039017084 0.04743778 0.03352278 0.015793504
000190 96 d0 72 bd d6 74 82 be 7e 05 00 bd 54 59 fb be
       -0.059280954 -0.25479764 -0.031255238 -0.4909159
0001a0 0d ff 19 3d ee f0 74 3d c1 d7 9e be d9 a1 0b 3d
       0.03759675 0.05980008 -0.31023982 0.034089897
0001b0 85 9f 3f 3d aa fe 3a be fc 47 f4 3c 89 d2 5d bc
       0.04678299 -0.18261209 0.029819481 -0.013538965
0001c0 d3 20 61 bd 6d 2c 1b bd 1c f2 7d bd 93 6b 05 3d
       -0.054962944 -0.037884165 -0.06199847 0.032573294
0001d0 10 e1 a9 3d 27 60 b8 3d 91 19 29 be 5e ae 55 bd
       0.082948804 0.090027146 -0.16513659 -0.052168243
0001e0 8a d4 bd bc 60 6a 13 3d 66 72 83 bb 61 4d ab bc
       -0.023172636 0.03599012 -0.00401144 -0.02091092
0001f0 a6 70 1e bd c0 78 28 bd 84 38 ac 3b 5d 1b a0 3d
       -0.03868165 -0.04113078 0.0052557606 0.07817719
000200 ea 61 23 be 42 6e f3 bc 19 8b 6f bd 65 92 65 bd
       -0.1595532 -0.029715661 -0.058482263 -0.056047816
000210 22 56 58 3d 10 0c c0 3b fe ff 5e bd 8c cc 95 3d
       0.052816518 0.005860813 -0.054443352 0.07314405
000220 39 b6 c8 3b 98 99 70 bb 29 c1 53 3c f1 1b 65 bd
       0.0061252383 -0.0036712643 0.012924471 -0.05593485
000230 f6 71 d6 bc 31 79 26 be 27 83 4c 3d 6c 81 1d bd
       -0.026177388 -0.16257168 0.049929764 -0.038453504
000240 f7 37 b5 3d a8 d7 87 3d 2f e1 8d be 20 f3 20 bb
       0.08848565 0.0663293 -0.27710864 -0.0024558976
000250 36 8a 43 bd 1b 23 c1 3b 3d 58 87 bd 28 48 9c bf
       -0.04773923 0.0058940775 -0.06608627 -1.220952
000260 b1 aa 1e bb dd 97 e7 bd a1 dd 95 3c 52 f0 59 3c
       -0.0024210627 -0.113082625 0.018294157 0.013301926
000270 f5 15 db bd d2 77 38 bd 47 b9 6b 3d b5 8a bc 3c
       -0.10697547 -0.045036145 0.05754974 0.02301536
000280 24 b6 c7 bd 61 ea 18 bd db fe 81 3d 1d fe 32 3d
       -0.097515374 -0.037332896 0.06347438 0.043699373
000290 d9 2a b7 bd f7 57 02 bd 68 8b a4 bd 49 aa d5 3c
       -0.089437194 -0.03182217 -0.08034402 0.026082175
0002a0 83 0e db 3d 53 f5 a9 be 06 24 83 bd da 91 19 be
       0.10696127 -0.3319498 -0.06403355 -0.14997044
0002b0 0a 92 17 be eb 31 d1 bd d0 6a 74 bc 00 c6 4e bd
       -0.14801803 -0.10214599 -0.014918044 -0.050481796
0002c0 90 76 ec bd 3e 9e 56 3c 12 2f 5b be 6d e7 0f bc
       -0.115460515 0.013099251 -0.21404675 -0.008783204
0002d0 56 10 55 3c d2 a2 21 3d 5d 59 73 bd 6e 70 8a bf
       0.013004383 0.03946192 -0.059411395 -1.0815561
0002e0 45 2c 84 3c f1 26 41 bb 95 fd d5 3d a1 64 48 bf
       0.01613439 -0.0029472674 0.104487576 -0.7827855
0002f0 fc 02 ce bd 04 ea 09 3d a1 3e c9 bf c8 77 7c 3c
       -0.10059163 0.03367044 -1.5722238 0.015409417
000300 86 0a 90 bf 82 65 c7 3c cc 98 31 3b 82 da a9 bf
       -1.1253211 0.024340395 0.002709913 -1.3269808
000310 a6 6c 07 3e 03 2d ae bf 1a 9f 1f bf bf b7 eb be
       0.1322504 -1.3607486 -0.62352145 -0.46038625
000320 90 5a 60 be 71 69 07 3b ab 99 27 be bd 37 c4 3d
       -0.21909547 0.0020662213 -0.16367213 0.09580944
000330 c6 4e a9 bd 8b 99 ed bd b0 f9 89 bf 0d 08 c2 3d
       -0.08266978 -0.116015516 -1.0779324 0.09474192
000340 cf cd b2 be 4d cf b1 3d 6d 27 1c 3d 42 56 6c bd
       -0.34922644 0.086821176 0.038123537 -0.05769945
000350 36 32 f3 bb 6a e0 93 bd 12 66 3e bf a8 b4 e8 bd
       -0.007421757 -0.07220538 -0.74374497 -0.113625824
000360 8d e5 91 3d 1f f3 ef 3c 46 3f de be 00 7f 30 bb
       0.071238615 0.029290734 -0.4340765 -0.0026931167
000370 a7 ce bd be 8d 1f fa bc 94 43 cf be 06 81 a3 bd
       -0.37071726 -0.030532623 -0.40481246 -0.07983594
000380 6a 36 12 3c ae a1 12 be 68 df 10 3b c5 e6 f9 3d
       0.008924106 -0.14319488 0.0022105817 0.12202219
000390 14 41 a4 3c a2 d3 9b be 7d 59 4f be 2a 0e cb be
       0.020050563 -0.304349 -0.20248981 -0.39659244
0003a0 58 8e c0 3d cc 5f 1c 3d 9e 99 d9 be 0d cd 91 3d
       0.0940215 0.038177297 -0.42500013 0.071191885
0003b0 f9 bb a4 3d a8 31 7b be dd 10 ac 3d ed da 83 3d
       0.080436654 -0.24530661 0.08401654 0.06438241
0003c0 11 4b 91 bb d3 a0 9f bd 9d 71 26 3c 50 71 02 bd
       -0.0044339974 -0.07794347 0.010158923 -0.031846344
0003d0 c6 da 19 be b3 5d de 3d 85 e5 fc bd 78 3b b1 3c
       -0.15024862 0.108577155 -0.12348465 0.021634802
0003e0 53 a0 c7 bd 3c 02 dc bc be 95 29 be ea 61 76 bd
       -0.09747376 -0.026856534 -0.16561028 -0.060151972
0003f0 95 13 f0 3d 47 fe 8a 3d 53 51 70 bd dd 8b 4d bd
       0.11722485 0.06786781 -0.058671307 -0.050182212

conv2.lin.bias f4 [64]
000000 57 1a 18 3e 98 91 97 3d 79 82 71 bd 67 aa db bd
       0.14853798 0.07400817 -0.05896232 -0.10725861
000010 b0 75 7d 3e f9 8a 46 3e db f1 af bb 3c 78 3e be
       0.24751925 0.19388951 -0.0053694076 -0.18600553
000020 73 15 27 be 77 bd d8 bd d6 49 a2 bd 95 4c 29 3e
       -0.16316776 -0.105830126 -0.07924239 0.1653312
000030 ae dc 2c bc 6a 8b 13 3d 73 2e 39 be af fa 01 bd
       -0.010550661 0.036021627 -0.18084125 -0.03173321
000040 40 6f dd 3d c6 16 5d 3e 1a 6e 3c be ab 8e 65 bd
       0.10812235 0.21590719 -0.18401375 -0.056044262
000050 52 e7 00 3e c1 5d 44 bd 3e ca 01 be fe 70 03 be
       0.12588242 -0.047940973 -0.12674806 -0.12836072
000060 de 8d 82 3e cf e0 75 be c8 87 25 bc c2 ae 80 3d
       0.2549886 -0.24011539 -0.010103174 0.062833324
000070 8d dc 12 bd f4 fa 06 be 0f bc dc 3d b5 2b 2f 3e
       -0.035854865 -0.13181669 0.10778057 0.17106517
000080 e5 89 d1 3d 18 25 88 3e 4e 13 92 bb e6 5f b6 bd
       0.102313794 0.265908 -0.0044578677 -0.0890501
000090 f3 7d be 3d 04 1d 10 3e 3c 99 cd bd b1 00 32 be
       0.09301367 0.14073569 -0.10038993 -0.17383076
0000a0 af 7d d9 bd d9 a4 07 bc 61 65 6d bd 41 a3 fe bc
       -0.10619675 -0.008279049 -0.05795801 -0.031083705
0000b0 81 94 81 3d 3e d5 34 3d 4b 70 96 bd 6c 7a 2e 3e
       0.06327153 0.044148676 -0.07345637 0.17038888
0000c0 00 56 0a 3e ff 34 e7 3d c0 a1 2b 3d 08 3c 11 be
       0.13509369 0.11289405 0.041902304 -0.14183056
0000d0 78 07 a6 bd 17 e3 47 3e 7f 3e 11 be bc f9 c3 3d
       -0.08106893 0.19520222 -0.14183997 0.095691174
0000e0 93 25 db bd 5f 46 1d bc 15 6d a7 bd 90 db 1f be
       -0.10700526 -0.009599297 -0.081751026 -0.156111
0000f0 3f 5c 72 3e 12 aa 4d be ed 10 b4 bd 98 ea 2e 3e
       0.23668002 -0.20084408 -0.08792291 0.17081678

linear.weight f4 [6, 64]
000000 a0 9a 9d 3c 45 0c 7d 3e 22 39 86 be c7 6a 9c bd
       0.01923877 0.24711712 -0.26215464 -0.07637554
000010 83 36 4f 3d a3 57 ec 3d 66 7d 96 3e 96 42 28 be
       0.050589096 0.11540153 0.29392546 -0.1643165
000020 6c 35 c2 bd de ba 37 be 52 df 2f be 52 0e eb 3c
       -0.09482846 -0.17942378 -0.17175034 0.028693352
000030 92 a5 41 3e 02 68 c4 3e 85 27 1b bd dd 3b 82 be
       0.18910816 0.38360602 -0.037879486 -0.25436297
000040 f5 ae 67 3e 72 d6 c5 3d 24 c9 34 bd 15 ce 24 be
       0.22625335 0.09660043 -0.044137135 -0.16094239
000050 cd 0d 00 3e e5 44 30 bc f1 7a 04 be ee 09 05 be
       0.12505265 -0.010758613 -0.12937523 -0.12992069
000060 a1 07 51 3d 15 0b cd bd a2 db fd bd 55 a9 56 3d
       0.051032666 -0.10011879 -0.12395407 0.05240758
000070 7c fb 5e 3c e3 18 82 bd dc df 56 3e fa cc 64 bb
       0.013609763 -0.06352403 0.20983833 -0.0034912215
000080 35 86 d2 3d 03 c1 f0 3d 9d b4 d5 bd 9d 0e 32 be
       0.10279504 0.11755564 -0.1043484 -0.17388387
000090 d1 2b fc 3d c6 e0 32 3d 6f 4a a9 be 9f 63 7f be
       0.12313045 0.043671392 -0.330646 -0.24940346
0000a0 d7 3c f6 bd e5 9f c1 3e 9e 4a 46 be 69 75 85 3e
       -0.12023323 0.37817302 -0.19364402 0.2606614
0000b0 0b 05 10 3e 9c 6b 32 be 30 bb 0e be 4b 92 6b 3d
       0.14064424 -0.17423862 -0.13938594 0.057512563
0000c0 b3 69 72 3c e7 f4 32 3e 50 4f 07 3e a8 a7 cf bd
       0.0147957085 0.17476235 0.13213849 -0.101394
0000d0 1f 8a ab bd f8 af 04 3e e9 f4 15 be 92 6d e5 3d
       -0.08375954 0.12957752 -0.14644207 0.112025395
0000e0 fa 10 08 be 76 29 9e bd ca 4c aa bc 22 6b a2 bd
       -0.13287726 -0.07722752 -0.020788569 -0.0793059
0000f0 f4 3c 96 3e 45 2e 28 be c6 95 15 be 89 6a c1 3d
       0.2934338 -0.164239 -0.14607915 0.09444148
000100 9e d0 3b 3d a9 92 79 3e f9 6d 40 be 12 1a 03 be
       0.04585325 0.24372353 -0.18791951 -0.12802914
000110 04 40 36 3e 5f b5 f7 3d ec 9f 13 3e 74 1b 5a be
       0.17797858 0.12095141 0.14416474 -0.21299535
000120 be 77 60 be 18 1c 8b be 3a 5e 31 be 28 2c fd 3d
       -0.21920678 -0.2716987 -0.17321101 0.12361938
000130 af f2 bf 3d f9 55 7a 3e 74 1a 5d bd 14 25 7c be
       0.0937246 0.24446858 -0.053980306 -0.24623519
000140 88 10 d4 3d 82 b1 28 3e 26 d6 ff bd e5 30 af bd
       0.103547156 0.16473964 -0.124920174 -0.08554248
000150 cf de 6a 3e e6 f4 0c be 8a d2 18 be b6 bc 06 be
       0.22936557 -0.13765296 -0.14924064 -0.13157925
000160 e8 61 02 bd cd ee 84 bd 81 d5 a9 bd cf 4d fe 3d
       -0.031831652 -0.0649086 -0.08292676 0.124171846
000170 7d 71 0d be 9c 00 c6 bc f5 c8 e6 3d d5 ba 24 3e
       -0.13812824 -0.024170212 0.11268798 0.16086896
000180 ce df 2b 3e c3 f9 cd 3d c7 5e 14 be 83 bd 2b be
       0.16784593 0.10057404 -0.1448928 -0.16771512
000190 3f bc 06 3e 22 3b 1c 3e b1 98 95 be da 07 3a be
       0.13157748 0.15256932 -0.29218057 -0.18167058
0001a0 91 e0 48 be 3f d5 35 3e 89 33 0f be 29 6a 6a 3e
       -0.19616915 0.17757128 -0.13984503 0.2289206
0001b0 63 9c bb 3e 0d aa 59 be 29 ad ed bd 2b 19 d0 3d
       0.3664275 -0.21256275 -0.11605293 0.101610504
0001c0 79 c0 83 3d 62 38 96 3e 9d 11 fe 3d c1 0c 15 be
       0.064331956 0.29339892 0.12405703 -0.14555646
0001d0 8e 61 40 be df d3 f4 3d 60 1b 05 be d9 2a 84 3e
       -0.18787214 0.11954474 -0.12998724 0.2581394
0001e0 60 2e 2c be fa b6 15 be eb 08 91 bd 69 cb 46 be
       -0.16814566 -0.14620581 -0.07081779 -0.19413532
0001f0 c8 35 0c 3e 3b 22 51 be 3e c8 45 be 46 a3 8c 3d
       0.13692391 -0.20423214 -0.19314668 0.068670794
000200 4b 8d 5f 3e 9e b1 c7 3e c9 79 80 be a6 5e aa be
       0.21831243 0.390027 -0.25092915 -0.33275336
000210 3b 28 a3 3e 16 1b a1 3e d9 e5 aa 3e 99 b3 fe be
       0.3186663 0.31465977 0.33378485 -0.49746397
000220 55 ec 98 be 66 98 3b be 60 9c d3 be 3d fa 88 3e
       -0.29867807 -0.18319854 -0.41330242 0.26753417
000230 ec f5 ce bc 48 42 cf 3e 79 9f be be c8 d2 1d be
       -0.025263749 0.40480256 -0.37231043 -0.15412438
000240 0e da a7 3e 84 42 95 3e d8 96 a8 be 3d 73 4e be
       0.3278355 0.2915231 -0.32927585 -0.20161147
000250 ab d8 af 3e 2d e7 67 be c4 48 b0 be 04 a3 b7 be
       0.34344992 -0.2264678 -0.34430516 -0.3586656
000260 11 79 bb 3e 4e 7b 96 be e4 5c ab be 71 09 3d 3e
       0.36615804 -0.2939095 -0.33469307 0.18460633
000270 17 8b 5e be 42 c8 91 be 03 27 b1 3e 0d da b2 3e
       -0.21732746 -0.28473097 0.34600076 0.34931985
000280 ed cd 82 3e cd 2c e1 3e e0 59 91 be 71 74 62 be
       0.25547734 0.43979493 -0.28388882 -0.22114731
000290 85 25 89 3e 94 99 de 3e 9e 40 73 be 94 7e 66 be
       0.26786438 0.43476546 -0.23755118 -0.22509223
0002a0 4d 20 2b be ee a8 97 3e 58 a2 a6 be d5 e8 ab 3e
       -0.1671154 0.2962107 -0.32545733 0.33576074
0002b0 8c be bd 3d 3e 69 31 be c4 c8 8d be 62 b6 8d 3e
       0.092648596 -0.17325303 -0.27692235 0.2767821
0002c0 1f aa a6 3e 71 99 9b 3e b1 99 21 3e 52 9d 9c be
       0.32551667 0.30390504 0.15781285 -0.30588776
0002d0 01 52 9b be ac 6b 4c 3e 45 69 e6 be 29 e6 03 3f
       -0.30336002 0.19962949 -0.4500219 0.5152307
0002e0 53 5a ac be 08 05 c7 be 04 ce 89 be f1 04 d2 be
       -0.33662662 -0.38871026 -0.2691499 -0.41019395
0002f0 9f 24 55 3e a9 ef 85 be 55 db 0e be aa 58 c6 3e
       0.20814751 -0.2615941 -0.13950856 0.3873952
000300 16 14 64 3e ca a5 c7 3e 04 89 d2 be 5a 92 bd be
       0.22273287 0.38993675 -0.4112016 -0.3702572
000310 bd 26 c4 3e 5c 72 b4 3e af 26 90 3e 5e 92 f6 be
       0.38310805 0.352435 0.28154513 -0.48158544
000320 60 b8 6c be 01 d7 7f be cf 33 ad be 13 b9 94 3e
       -0.23117208 -0.24984361 -0.3382859 0.2904745
000330 4d 87 89 bc f6 7a a6 3e 1a 8e c2 be 2f 45 4d be
       -0.01678815 0.32515687 -0.3799904 -0.20045923
000340 61 c1 ac 3e a2 0f 93 3e a4 7e b3 be 80 63 4e be
       0.33741286 0.28722864 -0.35057557 -0.20155144
000350 1a 17 a6 3e bd 7f 53 be d1 60 c2 be 20 a7 8f be
       0.324395 -0.20654197 -0.3796449 -0.28057194
000360 76 c4 a1 3e 17 52 9b be bb 2f 8a be 71 19 94 3e
       0.315952 -0.30336067 -0.2698954 0.2892566
000370 a7 17 a4 be c0 37 7c be dc ad 93 3e 5d 85 c0 3e
       -0.32049295 -0.24630642 0.28843582 0.37601748
000380 ae 7d 90 3e 7a 9e a6 3e 3f c7 5e be a6 b3 13 be
       0.28220886 0.32542783 -0.21755694 -0.14423999
000390 72 7a a5 3e a2 53 c3 3e e5 0d 95 be 18 ea bf be
       0.3231998 0.38149744 -0.29112163 -0.37483287
0003a0 15 ca 8c be e3 3f cb 3e 60 26 78 be da 5e ba 3e
       -0.27497926 0.3969718 -0.24233389 0.3640049
0003b0 99 cf 4b 3d a8 86 6a be 58 d5 44 be 44 d1 a2 3e
       0.049758527 -0.2290293 -0.19222009 0.31800282
0003c0 62 f0 bf 3e f6 55 25 3e 14 99 3e 3e 48 24 be be
       0.37488085 0.16146073 0.18613082 -0.37137055
0003d0 9f a7 8c be 40 93 81 3e 57 28 cd be b2 d7 e3 3e
       -0.27471635 0.25307655 -0.4006984 0.445005
0003e0 e4 c4 96 be 20 64 9a be 24 bc 99 be 62 16 c1 be
       -0.2944709 -0.30154514 -0.30026352 -0.3771239
0003f0 19 21 8e 3e 7c 4d 6d be 08 80 81 be 86 eb 88 3e
       0.27759627 -0.23174089 -0.25292993 0.2674219

linear.bias f4 [6]
000000 63 e7 87 be d1 b1 12 bf 93 17 d6 be ee 0c eb be
       -0.26543722 -0.57302576 -0.4181486 -0.45908302
000010 47 18 d9 be bf 7f da bd
       -0.42401335 -0.10668897
