results/SGC_1/checkpoint.pt (torch, 38959 bytes, 6 tensors)

conv1.lin.weight f4 [128, 3]
00000000: 3d28 1dbf 9166 093f 3fa8 093f d3b1 bebe
00000010: d56a 9fbe f5a6 433c 282e a8be c307 b03e
00000020: 7e11 9c3e cc89 433e 6a9b f0be bf0c e2be
00000030: 12a0 09bf 2bf3 2ebe e2f8 db3e 2dec 06bf
00000040: 8d9e 183e 5605 e3be c0a2 b03e a435 1d3f
00000050: 676a 80be 5b83 0cbf e0b1 e9be b76a e83e
00000060: c8df d53e c166 9d3e c659 93be 00bb c13b
00000070: 6ca6 153e 0228 38be 4488 353e 69ad d13e
00000080: b198 7a3e 412d e8bd 1957 e23e 6610 973e
00000090: 3d7a ae3e 2d0b 9cbc f111 dbbe 0b25 323e
000000a0: c34a 2d3f ffb2 c4be a339 97bd 266c 233f
000000b0: a2f8 0a3f 8b8d 863d 73e1 25be aaa7 de3e
000000c0: cbad 483e abc2 a8be ba9b d83e ea61 083e
000000d0: 98c5 f03e 47f9 95be e08e 653e c517 073f
000000e0: 7cdb c83e 58ee b43e 32b2 1ebe b443 5b3e
000000f0: 5a03 5bbe 2d2f 4cbf eaa5 9dbc 140b 963e
00000100: 0f03 d53e 5aba a5be b623 6bbe 596c 2a3f
00000110: 2810 dabd 8a8c fbbe eca9 cd3c c63e de3e
00000120: 6877 e53e d524 223f bc93 0abe b65e 57be
00000130: 80ce 06bf 1896 08bf c54d 0fbf 50a8 333e
00000140: 7f6a b5be 2175 0fbf 886d 83be 451f ec3e
00000150: 38d8 a1be 56d3 473e af90 cf3e ae5f 0b3e
00000160: c02b fb3c 7c8b 823e dd25 85be db31 39bf
00000170: 5180 0ebf 5d0f 603d b2f8 633e 2efe 1cbe
00000180: b55d 403e 9e60 023f 22ea 07bd a8d0 adbe
00000190: ccdb 21be 3bf9 ecbe ef11 7cbe 0ad3 b93e
000001a0: ac7b 8a3d 48bf adbd 9029 523d 9cfb 26be
000001b0: cd4d 203e 0c41 e73e f88d bf3e 6465 8c3e
000001c0: 599f 8e3e 5751 1bbe c7eb b8bc 25f5 6d3e
000001d0: e423 bb3e 981e 373c 1cb7 323f 65e8 993d
000001e0: c048 de3e ee37 a1be 450c 1bbe 4bd0 413e
000001f0: 0252 223f cff8 013f 024d d93e 3710 213f
00000200: b385 bbbe 02ec 373e a801 9dbd 4ede 933e
00000210: 84d5 07be ef18 cabe 6ca5 ebbd 2394 ca3e
00000220: a4dc 9dbe 95b5 d63e 6717 b73e 1265 043f
00000230: 0695 0d3e 8537 083f 25a0 253f bd6f e83e
00000240: 8e66 123f 1ca6 103f 2c0b 293e fee2 ebbe
00000250: 886b a8be 9836 e83d 3954 b4be 7029 babe
00000260: 0c2f 493e 2421 dfbe 185d 0ebe e4bd 003f
00000270: 7ce8 3ebe e0c6 29bd 6062 a33e b4ad 953e
00000280: dd5e 013f ef03 683e 4e21 66be 9b79 e93e
00000290: 5816 50bd eca7 283e 4a11 233f 35af debe
000002a0: 810b 00be 0600 dc3e de2e 253e cd49 19be
000002b0: 44ca 1a3f 075d d2be 7c0a 04bd c3f7 32bf
000002c0: 6b46 df3d 83b4 a7be 9962 1d3f badc b03b
000002d0: ce3d f43d 4727 383f 9e92 8abd 4287 4b3e
000002e0: 19de ee3e 3217 9bbe ccbb ff3e ce04 fe3e
000002f0: faf7 143c d39b 07bf 5e37 d0be ea5c 31be
00000300: 168e f3be ead4 4bbe 60f0 263d 32b6 59be
00000310: b090 2f3f b7f6 a33e 1a9d ecbe b3ef 043f
00000320: adf2 6d3a 8ca0 3cbc 1922 743e 3f67 e2be
00000330: 4fd3 aebd 88a9 c9be befd 943d 90f0 d1be
00000340: 5e22 583e aeda e53d 3e9e 55be 58c5 333f
00000350: 412d ba3e a7b2 063f e6d8 6f3e 49d6 96be
00000360: 54ad 30be fa80 83be a21f a9be 142a 3c3e
00000370: 185c 08bf c0a6 e6be 52d8 b8be 503a 90bd
00000380: 86bd 0ebf a6fc 63be 28e1 a43d 1de7 033f
00000390: c52e 8e3e 1556 133f f9ed 4f3e bf93 c7be
000003a0: 31c2 0dbf d26e 88be 9449 e6bd b287 3e3f
000003b0: 72f9 003e 341f 05be c6c7 0cbe 109d c8be
000003c0: 695e c93e e6ce efbe 53ad 0d3f d93a 183e
000003d0: 199b 3a3f c97e 8e3d 1689 49be 1978 1b3f
000003e0: 5472 943b 413e b0be 4a0c 1abe 5f9c 193e
000003f0: f888 49be 1c03 f13d f19a 9bbe b330 d43e
-0.61389524 0.5367213 0.5377235 -0.37245044 -0.31136194 0.011941661 -0.32847714 0.34380922
0.30482095 0.19095534 -0.46993572 -0.4415035 -0.5375987 -0.17084949 0.4296332 -0.52704126
0.14904232 -0.44340008 0.34499168 0.61409974 -0.2508118 -0.5488793 -0.4564352 0.45393917
0.41772294 0.30742458 -0.2877943 0.0059121847 0.14614266 -0.17984012 0.17727762 0.40952614
0.2447231 -0.113367565 0.44207075 0.295047 0.34077635 -0.019048298 -0.42787126 0.17396943
0.676922 -0.38417813 -0.0738404 0.63836896 0.54285634 0.06569966 -0.16199283 0.43487293
0.19597547 -0.3296102 0.4230631 0.13318601 0.47025752 -0.29291746 0.22417784 0.52770644
0.39229953 0.35338092 -0.15497664 0.21412545 -0.21387997 -0.79759485 -0.019244153 0.29305327
0.41603896 -0.32368737 -0.22962841 0.66571575 -0.10647613 -0.4913066 0.02510544 0.43407267
0.44817662 0.6333745 -0.13532919 -0.21032223 -0.52658844 -0.53354025 -0.5597804 0.17544675
-0.35432813 -0.560381 -0.25669503 0.46117607 -0.31610274 0.19514212 0.40540072 0.13610718
0.03066051 0.25497043 -0.2600545 -0.723417 -0.55664545 0.05470215 0.22262838 -0.15331337
0.18785746 0.50928676 -0.03318227 -0.33948255 -0.15806502 -0.46283898 -0.24616216 0.36293823
0.0676187 -0.0848375 0.05130917 -0.16306919 0.15654679 0.45166814 0.37413 0.27421105
0.27855948 -0.15167747 -0.022573365 0.23238046 0.3655082 0.011176728 0.6981065 0.07515029
0.4341488 -0.31487983 -0.15141399 0.18927114 0.63406384 0.50770277 0.42441565 0.62915367
-0.36625442 0.17961124 -0.076663315 0.28880543 -0.13265043 -0.39472148 -0.11506161 0.39566144
-0.30832398 0.4193541 0.35760042 0.5171672 0.13826379 0.53209716 0.64697486 0.4539775
0.57187736 0.5650346 0.16508168 -0.4607162 -0.3289454 0.11338538 -0.35220507 -0.3635974
0.19646853 -0.43579972 -0.139027 0.5028975 -0.18643373 -0.041449428 0.31910992 0.29234087
0.50535375 0.2265775 -0.22473642 0.4560059 -0.05080256 0.16470307 0.63698256 -0.43493047
-0.12504388 0.42968768 0.1613116 -0.14969559 0.6046488 -0.410866 -0.03223656 -0.69909304
0.10902103 -0.32754907 0.61478573 0.0053974064 0.11925851 0.7193493 -0.06766246 0.19875816
0.46653822 -0.30291134 0.49947965 0.4961304 0.009092325 -0.52972144 -0.40667242 -0.173206
-0.4756934 -0.19905439 0.040756583 -0.21260908 0.6858015 0.32024166 -0.4621361 0.5192825
0.0009076994 -0.011512887 0.23841132 -0.44219396 -0.08536398 -0.39387155 0.0727496 -0.41003847
0.2110686 0.112233505 -0.20861146 0.70223 0.3636265 0.5261635 0.23422584 -0.29460362
-0.1725362 -0.2568434 -0.33031946 0.18375427 -0.53265524 -0.45049095 -0.3610254 -0.07042372
-0.5575794 -0.22264346 0.08050758 0.51524526 0.27770057 0.57553226 0.20305623 -0.3897991
-0.5537444 -0.2664705 -0.11244503 0.74425805 0.12595156 -0.13000184 -0.13748083 -0.3918233
0.39329842 -0.46837538 0.55342597 0.14866199 0.7289291 0.06957776 -0.196812 0.6073013
0.0045302305 -0.34422496 -0.1504375 0.15001057 -0.19681156 0.11768171 -0.30391648 0.41443405

conv1.lin.bias f4 [128]
00000000: 92d2 1a3f 5e3d e9bc 287f 09bf 3c12 c5be
00000010: 7e23 6fbe 91d1 34be 0936 803e a3c9 bdbd
00000020: 3c68 293e 2da7 acbe ef1c f4be 371a e63d
00000030: b285 12be fcc6 17be 4030 d83d b8a4 353e
00000040: 0e66 06bf 3b1f cebd 7cff b43e c46c 143e
00000050: 62cd db3e ae07 883e 3384 893e c209 fb3e
00000060: 4f1e 8bbd 7019 14bd 231f aabe 29de 8cbe
00000070: 4bb4 9f3e 2d04 2f3e fb08 d83e d586 db3e
00000080: b610 a63e 402f a43c cc1c e3be e21c d6be
00000090: c35f 1ebe 8e30 03be 285f aebe 7d67 883e
000000a0: 20fc ea3d 7e93 fa3e 55ea dabe 3590 093e
000000b0: 588b ffbe c758 d33e 65fc b8be 22a6 09bf
000000c0: ad11 12bf 1537 fdbe 4db5 09be eb32 0dbf
000000d0: 243c a3be 7661 56bd e22b 653e f41f 2abe
000000e0: f85b 903e 1d53 173e f0eb 9a3e 1f55 a83e
000000f0: 9c26 acbd 1b54 38be cf99 00bf f024 0f3d
00000100: aea4 0bbe c727 563e 46c5 eb3e 3359 d43e
00000110: ce66 dc3e 1ac6 d7bd 8c72 533e 6437 a23d
00000120: b472 6bbe c1eb 08bf 5050 39bd 77aa a33e
00000130: 2744 de3e d6c1 ef3e 7df5 1a3e 8089 c9bc
00000140: 1983 ef3d a5fe 033f 3bb5 4a3e 7a3f 033d
00000150: 77e1 663e 862c 833e 413f c93e 480b aebd
00000160: a8e5 eebe d483 acbe 186b 073e 8ce6 003e
00000170: c5ac c73e 4207 4cbe d783 c3be c768 9d3e
00000180: 135b d83d a5b6 3abe 8a57 ec3e fba7 503d
00000190: 3b97 ecbd e7d8 a03d ea1e e2be a6c3 033f
000001a0: 43ab 333e 8a36 f0be c446 12be 53ed 0a3f
000001b0: edc3 44be 1450 cabe 2e5d 0a3e 8b9a 763e
000001c0: 14fb d1be bc5f e93e 0c44 d63e 9bd9 873e
000001d0: b177 b1be fa8f febe 05c3 11bf a52e 0c3e
000001e0: 030d dd3e fb5d 7b3e c14c 6d3e 0be7 3b3e
000001f0: d481 e33e a250 3e3e 111e ac3e 88f2 0abe
0.60477555 -0.028471645 -0.5370965 -0.38490474 -0.23353383 -0.17658068 0.25041226 -0.09266975
0.16543669 -0.33721295 -0.47678325 0.11235469 -0.14308813 -0.14822 0.10556078 0.17738616
-0.52499473 -0.100645505 0.3535117 0.14494616 0.42930132 0.2656836 0.26858672 0.49030882
-0.0679289 -0.03615707 -0.3322688 -0.27513245 0.3119224 0.17091437 0.42194352 0.42876306
0.32434624 0.020042062 -0.44357908 -0.4181891 -0.15466218 -0.12811491 -0.34056973 0.26641455
0.1147387 0.48940653 -0.42756906 0.13433917 -0.49910998 0.4127867 -0.36130062 -0.53769124
-0.5705822 -0.49456087 -0.13448067 -0.5515582 -0.3188182 -0.05233904 0.22380021 -0.16613752
0.28195167 0.14777799 0.3025813 0.32877442 -0.08405802 -0.18000834 -0.50234693 0.034947336
-0.13637039 0.20913611 0.46048945 0.41474304 0.43047184 -0.10535832 0.20649165 0.07920721
-0.22992975 -0.5348473 -0.045242608 0.31965992 0.4341137 0.46827573 0.15132709 -0.024601698
0.11694927 0.5156043 0.19795696 0.032042958 0.22546946 0.25619906 0.3930607 -0.084982455
-0.4665959 -0.33694327 0.13224447 0.12587947 0.38999 -0.19924644 -0.38186523 0.30744
0.10564246 -0.18233736 0.46160537 0.05094145 -0.115522824 0.07853871 -0.4416421 0.5147041
0.175458 -0.4691661 -0.14284807 0.5426838 -0.19215365 -0.3951422 0.13512108 0.24082391
-0.4101187 0.45580852 0.4184879 0.26533207 -0.3466163 -0.4971922 -0.569382 0.13689668
0.4317399 0.2454757 0.2317381 0.18349855 0.44434988 0.18585446 0.3361669 -0.13569081

conv2.lin.weight f4 [64, 128]
00000000: 88aa 18bf b355 683d 7024 623d f0e4 cd3c
00000010: 0d2a 5a3d a0d7 b0bd eeab 673d a228 b2bd
00000020: 68c1 e53b f6ad f6bc 42c0 07bd dcad 9fbe
00000030: 6705 f53c fb7d 30be 9e2e 14be c960 343d
00000040: 289a 27bd 8373 18be 35da b23d 9eb8 e3bb
00000050: 1969 303e 0316 0e3d 42a8 dfbe 465d 36bf
00000060: 9271 093d 69c8 8a3d 5a3c 7cbd 2f37 6e3d
00000070: a346 47bf 41bb 0e3e b7ef 053e afa1 aebd
00000080: ece5 98bc 2052 bcbc c0f7 8a3d d601 2c3d
00000090: adac f3bd f2a0 c3bc 39f3 9fbb 736b 113d
000000a0: ef4f 873d 9699 373d 283b 2cbf 481e fb3d
000000b0: e876 7dbc 5946 163d afa4 74bf 71b0 4cbf
000000c0: 008e 62bf 7ed2 a7bd ea05 7d3d e395 63bd
000000d0: c4fd a6bd d27d fbba e6b6 02bf 8cda 59bd
000000e0: 33ea 423d b53a a4be 17a6 57bd 107c 05bf
000000f0: 8a94 5abe 9477 c0be d8da 39bf 1e2a 193d
00000100: 0c00 afbc bb8b cabe b369 e8be 77c7 52bb
00000110: 3a53 ca3c 999d b9bd 2fb9 babe b465 bc3d
00000120: 42f5 1b3d 90ba f73b 1ead 343d b32f 50bc
00000130: 1e91 843d a12b 093d fc5d f5bd 1434 c73c
00000140: e10c 603d 1d57 3dbc 9a6c 64be da24 8a3d
00000150: f370 5d3c 4598 973d db64 253d 29da 92bd
00000160: f6d5 80bd bd1a 06bf 7a5c 6dbd ba07 4abe
00000170: 35fc 2b3d db8a a83d 482f 173d 4103 33bf
00000180: 27c1 cbbc 5fe8 633b 360d 30bf 0aa4 ce3d
00000190: 6ecb 1dbe eba5 a7bd 4833 c8bc 1f68 f03d
000001a0: c42c 3a3d 1553 5dbf 3838 67be c263 80bf
000001b0: 9ba9 973d c2d6 7d3d 6217 90bd fc63 b23c
000001c0: 93b7 69bd 6b6a 9d3d bcf2 56bd caa5 64bf
000001d0: 4e49 163d ed6d 963d acfd e33c decc 89bc
000001e0: 0566 733d 74c8 1b3d 31fa 06bf 9deb 463d
000001f0: 4250 30bf c5fe 03be 6609 a43d 8e20 09bf
00000200: b0ea d2be 6385 6c3d 33d9 8dbd 008b ce39
00000210: 2922 b33c 8d41 2d3b fbbd 323c b1d8 a73d
00000220: 510f 97ba 806f e13a a1ce 303d 9d3a 27be
00000230: 85c9 34bd 54d4 adbd 7186 28be a383 a93d
00000240: e5c6 133d 58d7 5abd 0f4e c63d ca05 a4bc
00000250: 3407 213d 16b3 dc3c db7f c2be 1d2e 03bf
00000260: 0e08 c6bc a88d 523c d9ae ac3d 5334 a43c
00000270: a8d5 f6be 813b 013e cd62 503e 394a 713c
00000280: baeb 773d a116 39bd e199 463c 0cc7 fe3c
00000290: f1d0 4fbe 8619 2e3d 7772 cd3c 1181 41bd
000002a0: 8106 0f3c b231 bd3c aa0b 11bf 8200 d63d
000002b0: bea4 703d e19e 0ebd 46a7 4fbf 9b82 25bf
000002c0: cba6 50bf 0e95 d5bc 0eb4 123d 68c2 a63d
000002d0: 793f 83bb e589 683d 739b c0be 42fb 95bc
000002e0: 7192 413d 5a08 66be e20a da3b 02d0 f4be
000002f0: 9740 54bd 5ccd afbe 7e1d 28bf 624d 6abd
00000300: 08ad 1f3c 89bf 5dbe 6fbc 02bf 9969 2ebd
00000310: 7043 17bd 2f9a 823d 7c0e 9fbe 633e 443d
00000320: af34 9fbd e880 2fbc ac4a dabc 716d 87bc
00000330: af9d a63d 5f23 aa3d d1bd 3dbe 9a54 febc
00000340: 8bdb 623d 2d36 093d 2c24 4bbe c170 2ebc
00000350: 3258 3e3d 4e44 64bc d253 9c3c 5280 333d
00000360: a66c 093d cfd1 fcbe 0593 9bbb 1403 38be
00000370: 099e 883d d881 90bc 042b 873d e9c6 bdbe
00000380: 5fee 84bd a58a 49bd 8428 0dbf f63d 0c3d
00000390: f265 9dbd 8746 993b c0b5 873b abaa 16bd
000003a0: 6be0 a1bd 749e 39bf 55a6 76be fd14 7bbf
000003b0: 3a86 e13c 8057 63bb fee9 7f3d e3d3 8f3d
000003c0: 990b 03be 25c9 7dbd eaa9 b33d 60c0 f6be
000003d0: 2d7f 7bbd 3a28 513d 6077 143d fe1f 48bd
000003e0: 5c05 4e3d 65ff 0b3e 07b1 acbe e02a 913d
000003f0: bfb3 e7be d5d4 80be c10c 75bd 2952 47be
-0.5963521 0.056722354 0.05521053 0.02513358 0.05326276 -0.08634877 0.05656045 -0.08699156
0.007011581 -0.030112248 -0.033142336 -0.31187332 0.029909803 -0.17235558 -0.14470908 0.044037614
-0.0409185 -0.14887814 0.08733026 -0.0069494983 0.17227592 0.03468896 -0.43683058 -0.71236074
0.033555575 0.067765065 -0.061580993 0.058158096 -0.7784216 0.13938619 0.13079725 -0.085269324
-0.018664323 -0.022988379 0.06785536 0.04199394 -0.1189817 -0.023880456 -0.0048812893 0.035502862
0.06607043 0.044824205 -0.67277765 0.12261635 -0.015470244 0.036688183 -0.9556379 -0.7995673
-0.88497925 -0.08194445 0.06177322 -0.055562865 -0.08153871 -0.0019187278 -0.5106033 -0.05318694
0.04758663 -0.3207604 -0.05264863 -0.5214243 -0.21345726 -0.3759123 -0.72599554 0.03739368
-0.021362327 -0.3955973 -0.45393142 -0.0032162347 0.024697889 -0.090632625 -0.3646941 0.09199086
0.038075693 0.007560082 0.04411041 -0.012706685 0.064729914 0.033488873 -0.11980817 0.024316825
0.054699782 -0.011556414 -0.22307053 0.0674531 0.013515699 0.0740209 0.040379386 -0.07170517
-0.0629081 -0.5238455 -0.05794952 -0.1972951 0.04198857 0.082296096 0.036910325 -0.6992684
-0.024872376 0.0034775955 -0.6877016 0.10089882 -0.15409634 -0.08185943 -0.024438515 0.117386095
0.045452848 -0.864549 -0.2258004 -1.0030444 0.074053966 0.061972387 -0.0703571 0.021776192
-0.057059836 0.07686313 -0.052477583 -0.89315474 0.036691003 0.073451854 0.027830921 -0.016821321
0.059423465 0.038032964 -0.5272551 0.048564542 -0.68872464 -0.12890156 0.08009605 -0.535653
-0.41194677 0.057744395 -0.06926193 0.00039394945 0.021866875 0.0026436776 0.010909553 0.081956275
-0.001152495 0.0017199367 0.043165807 -0.16330953 -0.044137497 -0.08487764 -0.16457535 0.08277061
0.036078352 -0.053428024 0.09682857 -0.020022292 0.03931351 0.026940864 -0.3798817 -0.5124224
-0.024173763 0.012851156 0.08431787 0.020044481 -0.48209882 0.12620355 0.2035019 0.014727169
0.06052754 -0.045187596 0.0121216485 0.031100772 -0.20294549 0.04250481 0.025078995 -0.047242228
0.008729578 0.023094986 -0.5665842 0.104493156 0.05875086 -0.034819487 -0.81114614 -0.64652413
-0.81504506 -0.026072051 0.035816245 0.08142549 -0.0040053693 0.05677213 -0.37618598 -0.018308286
0.047258798 -0.22464123 0.0066541294 -0.47814947 -0.05181941 -0.34336364 -0.6567 -0.057202704
0.009745844 -0.21655096 -0.51068777 -0.042581175 -0.036929548 0.063770644 -0.31065738 0.04791106
-0.077737205 -0.010711886 -0.026646934 -0.016531678 0.081355445 0.08307528 -0.1852944 -0.0310462
0.055385154 0.03349893 -0.19838017 -0.010647 0.04647083 -0.013932301 0.019082937 0.043823548
0.03355088 -0.4937882 -0.0047477507 -0.17969924 0.06670768 -0.01764004 0.066000015 -0.3706582
-0.06490778 -0.049204487 -0.55139947 0.034238778 -0.0768546 0.004677597 0.0041415393 -0.036783855
-0.079041325 -0.72507405 -0.24086888 -0.980789 0.027529825 -0.0034689605 0.06247901 0.07022836
-0.12797393 -0.061959404 0.08772643 -0.48193645 -0.06140058 0.051063754 0.036246657 -0.048858635
0.05029808 0.13671644 -0.3372881 0.07088256 -0.45254323 -0.25162378 -0.059826616 -0.19464935

conv2.lin.bias f4 [64]
00000000: a2af 303e 3ad2 133e 690a ffbb ebf2 c6bd
00000010: 0e14 4dbe 9292 3ebd e826 b5bd 5a6e 003d
00000020: 47aa 883d c00d b8bd 9f5e aabd df25 7f3d
00000030: d4f4 e43d a9e8 c7bd 612a a6bd 9a16 eabd
00000040: 6e8c a1bb e784 133e 6706 efbc bf1c cf3d
00000050: cf79 1a3e 6946 2bbd 9fa4 993d 5845 8fbd
00000060: f7ad 96bd 423b 1b3e 1738 383d 0c7e 49be
00000070: bd1e e43d 3958 47bd 4203 90bd c3d7 0cbe
00000080: d8f1 0d3e 0e0e 9abd b082 c23c 7445 373e
00000090: 2295 a7bd f9ea fabc 9368 d1bd abcb b7bd
000000a0: f92b e4bd a0e9 3b3d d956 30be 6fca 0cbe
000000b0: 9276 a23d e27d 273e e188 233d 774e 023d
000000c0: 63fd 29be 1354 033c 50e7 8cbd 0c6c 1e3e
000000d0: 652f 123c 2571 523e e997 783d 318e cb3d
000000e0: fc7d 5ebb 2f0b 033e 5218 a9bd 104f 8fbd
000000f0: c439 10be 7853 92bd 55bc 16bd fe8f d5bd
0.17254499 0.14435664 -0.0077832234 -0.09714302 -0.20027182 -0.0465265 -0.088453114 0.03135524
0.06673103 -0.089869976 -0.08318829 0.062291976 0.1117951 -0.09761173 -0.08113552 -0.11430092
-0.0049300706 0.14406167 -0.029177858 0.10112905 0.15085529 -0.041815195 0.07502102 -0.06995648
-0.073574 0.15159324 0.044975366 -0.1967699 0.11138675 -0.04866812 -0.070318714 -0.13754182
0.13861787 -0.07522212 0.023743957 0.17897588 -0.08182742 -0.030629622 -0.10225024 -0.089743935
-0.111411996 0.0458771 -0.1722063 -0.13749097 0.07932772 0.16356614 0.03992546 0.03181311
-0.16600566 0.00801565 -0.06880057 0.15470904 0.008922433 0.20550974 0.060691748 0.0993923
-0.0033949604 0.12797235 -0.08256592 -0.06997502 -0.14084536 -0.07144827 -0.0368007 -0.10427855

linear.weight f4 [6, 64]
00000000: fe6a 373e 7974 923e ec1c 4b3d 9214 31be
00000010: 78c7 e8bd 7b6c 12bd 8ad3 f2bd f342 943b
00000020: b118 5f3e 9bb0 cbbd 17f6 dc3d 2888 863e
00000030: 7d90 a23e ff02 69bc 4cdf 963d b454 edbc
00000040: 3b40 b4bc d665 713d ae32 8b3d 8ec4 003e
00000050: 00cd 373e c633 c13d 8ff4 053e 7c99 6d3d
00000060: 1f29 34bd 4f26 ab3e 011b 00bd 6915 7cbd
00000070: accb 883e 0eca 26bd 33ef d5bd a279 f6bd
00000080: f9df b33e 4e2a 703d 9f21 633e 35ba c03e
00000090: 5cbf 80bd 1ede 9c3d 7421 2cbe d280 0fbe
000000a0: 13ef 96bd da5d 053e e4de 96bd f884 a93d
000000b0: 368e db3d e067 8b3e 86b1 c83e 4b0c d4bc
000000c0: 779a 1dbe d19c dc3d 19e4 a03d 0810 863e
000000d0: f39b c5bd 9daa 433e 84e7 303e 31c8 6a3e
000000e0: 0991 3e3d 276a b13e e608 b4bd 0045 f03d
000000f0: 8275 afbd 4cca 3dbd e343 0dbb 295d bc3d
00000100: 9e0f 283e ee1c 7e3e 8a75 f43d 6983 4fbe
00000110: 4c36 1fbe f532 edbd b4a4 14be 43c0 d93d
00000120: 655a 4f3e 070f bbbd c570 dbbd 3337 bd3e
00000130: 43dc 453e b3b7 69be 2776 ba3d be28 03be
00000140: 96ab 88bd 8347 753e 1491 5cbd f0f9 283e
00000150: 93c4 513e 9069 16bd b59e 843e 5420 21bd
00000160: 54ed 14bc 29aa 413e 9ee9 c83d 0c51 f1bc
00000170: 39ca 553e 18f9 3bbe c6e3 71bc 4b04 80be
00000180: 8d47 9e3e e932 0c3d 2ade 5d3e b228 ba3e
00000190: 0b45 6ebe e191 de3d 68e7 34be c537 17be
000001a0: f783 08be 18d4 d439 b552 0ebe 69db 32be
000001b0: e00d 5c3d efd7 a03e 01c6 3e3e 0f66 d43d
000001c0: f369 22be cd78 a43d b034 d7bd ae77 3b3e
000001d0: 4b71 d43d a0c4 e13e 1037 413e c11a b43e
000001e0: 6ac0 943d 83cc 6a3e 8a72 81be e0df e4bd
000001f0: f4d8 efbd c421 9d3d cb7e 9dbc ff66 093d
00000200: f0a0 263e 7fc9 623e 1cd7 29bc fa14 80be
00000210: 770e ec3c 88fa acbe 5a5c 97be da15 4a3d
00000220: 1a11 813e e14b 88be 02a0 d43c 0b17 ae3e
00000230: d129 c43e 841f b0be 8c73 763d 13f0 83be
00000240: 0e95 b1bd 0513 9d3e a9e0 4fbc f6a3 df3d
00000250: 57d9 a63e 60ac 1f3d df69 c73e 3f53 ef3c
00000260: 7fa8 6abd 6899 903e 061a 203d 5abd 89be
00000270: 903f ac3e e356 81be d3fe ad3c 238d adbe
00000280: fd2d a13e d045 3d3d a701 5c3e b1b5 ca3e
00000290: e974 aebe b21c 07be 5d60 70be 5986 89be
000002a0: 72c0 c2be 0c37 443d 37fb c4be 3059 96be
000002b0: fa88 833d 73ba bd3e b55d cd3e b8f0 1dbc
000002c0: f4ac c1be 65e3 ddbc 708f 66be ac32 833e
000002d0: 8440 1fbd ce1c cd3e bfb5 813e edd7 d23e
000002e0: e5de 083d f130 513e 0a50 dcbe ee91 903d
000002f0: aee4 4cbe ca3e 63bd 03b6 12bd 5626 b2bd
00000300: fc45 a33e a965 bd3e ae39 a2bc 9922 a7be
00000310: 1310 aebd 78aa b9be c9b8 85be bc9c 0e3e
00000320: 9e59 813e 6a2b 86be f8e4 593d 4380 d23e
00000330: 7703 a23e 381a 9fbe 3653 4abd ecac 80be
00000340: 8afd dfbc fd74 af3e 5892 d23c 4b60 f23d
00000350: cffb 903e 0082 ae3c 4653 983e d4e6 25bc
00000360: e81d 183e bcb6 ba3e 1e63 e3bc ac43 97be
00000370: 8b05 9a3e a65f 97be 72c6 ae3d 7700 9bbe
00000380: d101 8a3e d0b9 d53c 76f2 873e 78dc dc3e
00000390: 82e3 9abe fe9b cf3d 2035 c1be 6eb9 61be
000003a0: 0f49 a1be 4d88 d8bd a6a1 bcbe f5fe 80be
000003b0: 7be2 033d 1546 9b3e 27df 7b3e a7c7 9abd
000003c0: 988f 51be ccaf e33c 12f7 73be 1296 be3e
000003d0: ad8e a83d 1223 f63e cbb4 e73d 7812 b33e
000003e0: 740e f4bd 76b2 c53e 0e02 bbbe ea72 ab3d
000003f0: d621 77be 12e2 693d 9eaf a03b e902 09bd
0.17911908 0.28604487 0.04958813 -0.17293003 -0.11366171 -0.035747986 -0.11856754 0.0045245825
0.21786763 -0.09945794 0.107891254 0.26275754 0.3175086 -0.014221906 0.07366809 -0.028971054
-0.022003284 0.05893501 0.06796776 0.1257498 0.17949295 0.09433703 0.13081573 0.058007702
-0.04398453 0.33427665 -0.031275753 -0.061543856 0.2671789 -0.040720038 -0.10446014 -0.12034918
0.35131815 0.058634095 0.22180794 0.37642065 -0.06286499 0.07659553 -0.16809636 -0.14013985
-0.073698185 0.13024083 -0.07366732 0.08277315 0.10720484 0.27227688 0.3919794 -0.025884768
-0.15390955 0.10772098 0.07856006 0.26184106 -0.096488856 0.19108053 0.17275816 0.2292793
0.046525035 0.346513 -0.0879076 0.11731911 -0.08567335 -0.046335503 -0.0021555356 0.091974564
0.16412207 0.24815723 0.11936481 -0.20264973 -0.15548056 -0.11581985 -0.14515954 0.10632374
0.20249327 -0.091337256 -0.107148685 0.36956176 0.19322304 -0.22823982 0.09104567 -0.1280851
-0.066733524 0.23953061 -0.053849295 0.16501594 0.20485143 -0.036721766 0.25902334 -0.03933747
-0.009089787 0.18912567 0.09810184 -0.029457591 0.20877923 -0.1835674 -0.014763778 -0.25003275
0.30913964 0.03422824 0.2166678 0.36359173 -0.23268525 0.10867668 -0.176664 -0.14767368
-0.1333159 0.00040593813 -0.13898738 -0.17466511 0.05372417 0.31414744 0.1863022 0.10371029
-0.15860729 0.080308534 -0.10508096 0.18307373 0.103731714 0.44095325 0.18868661 0.35176662
0.072632626 0.22929578 -0.252827 -0.11175513 -0.117113024 0.07672456 -0.019225499 0.03354549
0.1627233 0.22147177 -0.0103662275 -0.25016004 0.028815491 -0.3378489 -0.29562646 0.049337246
0.2520836 -0.2662039 0.025955204 0.34001955 0.38313153 -0.34399045 0.060168788 -0.257691
-0.08671008 0.30678573 -0.0126878405 0.10919945 0.32587692 0.03898275 0.3894796 0.0292145
-0.057289597 0.2824204 0.039087318 -0.26902276 0.33642244 -0.25261602 0.021239674 -0.3389674
0.314804 0.046209157 0.21485005 0.39591745 -0.3407357 -0.1319454 -0.2347426 -0.26860312
-0.3803745 0.04790406 -0.38472912 -0.2936492 0.064226106 0.37056312 0.40110555 -0.009639911
-0.37827265 -0.02708597 -0.22515655 0.25624597 -0.038879886 0.4006104 0.25333974 0.41180363
0.033415694 0.20428826 -0.43029815 0.07059084 -0.2000911 -0.055479802 -0.03581811 -0.08698718
0.3188933 0.36991623 -0.019802894 -0.32643583 -0.0849916 -0.3626287 -0.26117542 0.13926977
0.25263685 -0.26204997 0.053196877 0.4111348 0.31643268 -0.3107469 -0.049395762 -0.2513193
-0.027342577 0.34268942 0.025704548 0.11834773 0.28317115 0.021302223 0.29751033 -0.0101258345
0.14855158 0.3646754 -0.027757224 -0.29543817 0.30082354 -0.2956516 0.08533944 -0.30273792
0.2695451 0.026089579 0.2655217 0.43136954 -0.302517 0.10137175 -0.37735844 -0.22043392
-0.31501052 -0.10572872 -0.36842078 -0.25194517 0.03219841 0.30326906 0.24596845 -0.07557612
-0.20464933 0.027793787 -0.23824719 0.3722387 0.08230338 0.48073632 0.113137804 0.34975028
-0.11916819 0.38612717 -0.36525005 0.083715275 -0.24134001 0.057100363 0.0049037477 -0.03345004

linear.bias f4 [6]
00000000: add1 cd3c b253 a8bd 13e1 76bd fd34 54be
00000010: a2db 883d 283d 65bd
0.025124395 -0.082190886 -0.06027324 -0.20723338 0.06682517 -0.055966526
