results/GCN_0/checkpoint.pt (torch, 5551 bytes, 6 tensors)

conv1.bias f4 [16]
-0.22702606 -1.0138866 -1.0196723 -0.049025197 -0.69248396 -1.0424905 -0.07978797 0.03350605
0.13837864 0.0 -0.1347984 -0.045141954 -0.75715584 -0.10363622 -0.8999995 0.0
00000000: 8579 68be 09c7 81bf 9f84 82bf a5ce 48bd
00000010: a146 31bf 5470 85bf e067 a3bd a43d 093d
00000020: 21b3 0d3e 0000 0000 9708 0abe c5e6 38bd
00000030: f7d4 41bf 3a3f d4bd 5e66 66bf 0000 0000

conv1.lin.weight f4 [16, 3]
-0.104786694 -0.4899832 -0.06109328 0.77968097 1.058194 1.0211184 0.81933045 1.181819
1.276824 -0.2495683 0.018339336 0.0022939327 0.7370807 0.6213606 0.9011599 1.0345867
0.9998085 0.5708508 0.27304885 1.1250347 0.80187875 -0.1359061 -0.90900385 -0.54990727
-0.16412649 1.3040164 0.65805537 -0.15669042 -0.4390767 -0.55684376 0.10222271 1.7769935
-0.023198297 -0.41046634 -0.19363225 -0.2055268 0.76027393 1.2575167 0.5812646 0.026070599
-0.5238551 -0.19468406 0.61841166 0.74995893 0.8543106 -0.26149112 -0.43383226 -0.009090066
00000000: 689a d6bd 14df fabe f23c 7abd 2c99 473f
00000010: e772 873f 02b4 823f a4bf 513f d845 973f
00000020: f86e a33f d58e 7fbe 603c 963c ce55 163b
00000030: 52b1 3c3f 7d11 1f3f 6ab2 663f 566d 843f
00000040: 73f3 7f3f 4723 123f 0fcd 8b3e 2301 903f
00000050: ed47 4d3f f82a 0bbe 7ab4 68bf b9c6 0cbf
00000060: c610 28be 02ea a63f 5176 283f 7473 20be
00000070: a9ce e0be 508d 0ebf 245a d13d 8674 e33f
00000080: 5b0a bebc a528 d2be 8847 46be 9e75 52be
00000090: 50a1 423f 4ff6 a03f c2cd 143f 0292 d53c
000000a0: 5e1b 06bf 425b 47be 3a50 1e3f 4ffd 3f3f
000000b0: 19b4 5a3f 2ae2 85be 431f debe 80ee 14bc

conv2.bias f4 [32]
-0.042208005 0.08313311 -0.060672715 -0.49798706 -0.16147248 0.005444428 -0.20349188 0.033971988
-0.05432425 -0.1940432 0.13094227 -0.012979988 -0.18817914 0.1287656 0.044975463 -0.1577221
-0.32043588 -0.06493028 -0.5706825 -0.32857534 -0.0042384537 0.039329328 -0.079903044 -0.20065244
-0.1382655 -0.0034264456 -0.1529327 0.12151414 -0.019946909 -0.055170335 -0.21262838 -0.0052554
00000000: 4de2 2cbd b141 aa3d f483 78bd 29f8 febe
00000010: 0b59 25be 2c67 b23b 2d60 50be 3626 0b3d
00000020: 1b83 5ebd 43b3 46be bb15 063e 04aa 54bc
00000030: 08b2 40be 21db 033e 3138 383d e781 21be
00000040: 2c10 a4be 2bfa 84bd 4018 12bf 073b a8be
00000050: bae2 8abb ca17 213d 35a4 a3bd d577 4dbe
00000060: 7995 0dbe 388e 60bb 649a 1cbe 68dc f83d
00000070: b367 a3bc 4afa 61bd 41bb 59be 7e35 acbb

conv2.lin.weight f4 [32, 16]
-0.09281616 1.2238946 1.775241 0.0068416847 0.6280165 1.8467293 -0.055973202 0.09786334
0.31533724 -0.263054 0.28051808 -0.3441416 0.92124 -0.2997371 1.1303145 -0.23866269
0.0034874475 0.9064557 2.1702712 0.026388535 0.46415395 2.6447043 -0.4650886 0.20145144
-0.27474225 -0.25220665 -0.36528522 -0.44725367 1.2390065 -0.22144982 0.77826923 -0.24626744
0.17015131 -1.1317189 -0.6135262 -0.054508206 0.20122454 -1.26748 -0.7286006 0.15510185
-0.49092844 -0.29345268 -2.066047 0.13930912 -1.1899518 0.23944962 0.015795294 -0.17650063
0.18881394 -0.060671203 -0.24509108 0.44290286 0.022786958 -0.70810366 -0.7895112 -0.28277123
0.2120848 0.24954578 0.29248223 -0.40443522 -0.6921148 -0.2726415 -0.5078966 0.14777407
0.24973425 -0.13113567 0.18172768 0.008475747 -0.25905824 -0.45605016 0.09765354 -0.32606804
-0.21389624 -0.33906126 -0.07437497 0.2730625 -0.1397593 0.17962113 -0.14170101 -0.23899534
0.14808457 0.48649555 1.7227632 0.06905441 0.3183299 1.2130576 0.11785049 -0.34020787
0.5351965 -0.21214266 0.09110448 -0.16209196 0.80483085 0.26980633 0.83146137 -0.121429995
-0.0051433067 -0.014639077 -0.17343171 -0.20552745 -0.31684557 0.13568579 -0.36512086 -0.34666058
-0.6579919 -0.10910104 -0.59601444 -0.0125159705 -0.15189765 -0.15105888 0.38845217 -0.049775332
0.098018944 0.6747416 1.7065562 0.08042181 -0.031995967 1.2015655 -0.18224739 0.015246532
0.5184738 0.25765875 0.06712402 -0.4551727 0.31270707 0.07681872 1.1260644 0.18288091
-0.03302849 0.676102 1.7404001 -0.012390041 0.39212734 2.027373 -0.008772261 0.38001707
0.29288888 -0.18587805 0.42238224 0.19397563 0.91135657 0.05399968 0.46627587 0.0074288845
-0.064015746 -0.3083834 -0.21709603 0.32489303 0.24109393 -0.29267055 -0.4972732 0.14337268
0.15421231 0.13435706 -0.10008632 -0.2709871 -0.2648506 0.255111 -0.23931837 -0.3054422
-0.052192286 0.6941894 1.7595774 0.11295925 0.4571129 1.7675642 -0.013883056 -0.15273128
0.54264385 -0.13269632 0.61795944 -0.26311186 0.8327187 -0.16038981 0.7362319 -0.32134303
0.03325087 -0.9338335 -1.283915 -0.72758853 -0.6493402 -0.9923873 -0.08345666 0.2659346
-0.6224549 0.34280106 -2.169127 -0.07922381 -0.60246384 -0.3868142 0.05773583 0.14917031
-0.043432273 0.24725893 0.92142797 0.1816041 0.3708967 0.867837 -0.062816754 -0.24059586
0.42561194 0.15990373 1.0072792 -0.2179756 -0.1072488 -0.123986036 0.8033757 0.2897434
-0.3984851 1.4159995 3.046433 0.3800741 0.50181526 2.7206814 -1.2804675 0.50400406
-1.1961612 -0.08849317 -1.7141322 -0.3397353 -1.5576766 -0.004077402 1.218542 -0.2872505
0.114317395 1.289781 1.873704 -0.017854895 0.1406064 2.342929 0.21104956 0.40223208
-0.2446777 -0.11189899 0.11210641 -0.37214574 1.2606235 0.2498357 0.8975694 0.2021499
0.3155119 -0.33423635 0.14830852 0.054109197 -0.27991584 0.19723372 -0.019079523 -0.04012982
-0.041999545 -0.09151548 -0.21558745 0.036759466 -0.2770591 0.20898215 -0.40265366 0.23799405
00000000: 6616 bebd 94a8 9c3f 193b e33f 3630 e03b
00000010: b0c5 203f a061 ec3f 2844 65bd 936c c83d
00000020: e273 a13e 04af 86be 11a0 8f3e 5433 b0be
00000030: 62d6 6b3f 2477 99be 25ae 903f fe63 74be
00000040: a98d 643b 7b0d 683f b9e5 0a40 c52c d83c
00000050: 96a5 ed3e d642 2940 1820 eebe 4949 4e3e
00000060: 04ab 8cbe 3b21 81be aa06 bbbe 6ffe e4be
00000070: c497 9e3f bec3 62be a73c 473f 882d 7cbe
00000080: 253c 2e3e 2adc 90bf 0e10 1dbf ff43 5fbd
00000090: ce0d 4e3e c93c a2bf 9285 3abf 05d3 1e3e
000000a0: f95a fbbe 6e3f 96be 1d3a 04c0 0da7 0e3e
000000b0: 5750 98bf 4832 753e 2265 813c 95bc 34be
000000c0: 7158 413e 5e82 78bd 28f9 7abe 2ac4 e23e
000000d0: b7ab ba3c 4846 35bf 681d 4abf 64c7 90be
000000e0: c22c 593e ee88 7f3e 3bc0 953e 2212 cfbe
000000f0: 6f2e 31bf ab97 8bbe 8305 02bf 1652 173e
00000100: 56ba 7f3e 6e48 06be d216 3a3e dcdd 0a3c
00000110: 48a3 84be 687f e9be 94fe c73d 64f2 a6be
00000120: 9e07 5bbe 7099 adbe e751 98bd d9ce 8b3e
00000130: 101d 0fbe 9aee 373e 121a 11be 32bb 74be
00000140: 7ba3 173e f215 f93e 8183 dc3f 666c 8d3d
00000150: 23fc a23e 7945 9b3f 995b f13d ba2f aebe
00000160: a302 093f ed3b 59be fc94 ba3d 6ffb 25be
00000170: 6509 4e3f 0e24 8a3e a7da 543f 4ab0 f8bd
00000180: 2f89 a8bb bdd8 6fbc 1598 31be ca75 52be
00000190: 9539 a2be 37f1 0a3e 1ff1 babe 7f7d b1be
000001a0: 2872 28bf 5e70 dfbd 6794 18bf c90f 4dbc
000001b0: 0f8b 1bbe 2eaf 1abe 34e3 c63e 38e1 4bbd
000001c0: 28be c83d debb 2c3f 6f70 da3f 31b4 a43d
000001d0: 340e 03bd e6cc 993f 0f9f 3abe 97cc 793c
000001e0: b3ba 043f d9eb 833e 5178 893d 650c e9be
000001f0: 241b a03e 2253 9d3d e122 903f 2245 3b3e
00000200: e248 07bd 0515 2d3f 6ec5 de3f 99ff 4abc
00000210: eac4 c83e 7bc0 0140 88b9 0fbc 9991 c23e
00000220: 88f5 953e d156 3ebe 7c42 d83e 8ca1 463e
00000230: aa4e 693f c52e 5d3d b6bb ee3e 006e f33b
00000240: b01a 83bd 6ee4 9dbe 6c4e 5ebe 6158 a63e
00000250: 54e1 763e ead8 95be 989a febe 4ad0 123e
00000260: d5e9 1d3e e694 093e 0efa ccbd d2be 8abe
00000270: 7f9a 87be e99d 823e e00f 75be ec62 9cbe
00000280: 94c7 55bd 66b6 313f d539 e13f 2e57 e73d
00000290: b40a ea3e 8b3f e23f c275 63bc 9765 1cbe
000002a0: b5ea 0a3f 8be1 07be 9732 1e3f 99b6 86be
000002b0: 0d2d 553f 3a3d 24be b279 3c3f 1387 a4be
000002c0: 1032 083d b60f 6fbf 5457 a4bf 3e43 3abf
000002d0: 293b 26bf 180d 7ebf 53eb aabd 9428 883e
000002e0: 3459 1fbf 9f83 af3e fad2 0ac0 1840 a2bd
000002f0: 123b 1abf 830c c6be 687c 6c3d 1ac0 183e
00000300: 0ae6 31bd 7231 7d3e b4e2 6b3f 6df6 393e
00000310: 2ce6 bd3e 912a 5e3f 12a6 80bd c35e 76be
00000320: cfe9 d93e cebd 233e 86ee 803f ff34 5fbe
00000330: 42a5 dbbd 64ec fdbd 08aa 4d3f 3f59 943e
00000340: 3d06 ccbe 793f b53f c2f8 4240 1399 c23e
00000350: f776 003f a51f 2e40 5ce6 a3bf 6906 013f
00000360: cf1b 99bf e83b b5bd af68 dbbf c9f1 adbe
00000370: f261 c7bf ba9b 85bb 2ff9 9b3f 7f12 93be
00000380: 3d1f ea3d 8b17 a53f 88d5 ef3f 6e44 92bc
00000390: 20fb 0f3e 8cf2 1540 601d 583e 5df1 cd3e
000003a0: ca8c 7abe 4c2b e5bd 0c98 e53d e389 bebe
000003b0: 1c5c a13f eed4 7f3e 1cc7 653f 6200 4f3e
000003c0: c78a a13e 0721 abbe 30de 173e 9ba1 5d3d
000003d0: 2151 8fbe a3f7 493e a94c 9cbc 2b5f 24bd
000003e0: b707 2cbd 786c bbbd f5c2 5cbe 1891 163d
000003f0: b1da 8dbe 6bff 553e 9f28 cebe b6b4 733e

linear.weight f4 [6, 32]
-0.37931168 -0.73483217 1.05054 -0.31403342 -0.14927307 -0.52295935 0.24024384 -0.5732434
-0.68212485 -0.044659454 -0.454941 1.2327743 0.30943707 1.425162 -0.813791 0.09536873
-0.93232256 -0.52016634 -0.36730632 0.035494383 0.36679995 -0.58398134 0.16560374 0.100009225
-0.19899191 -0.5502248 0.0626095 -0.47419804 0.102189094 0.24573848 -0.5502903 0.61627376
-0.108919874 -0.17945603 0.6962589 -0.019501913 -0.10415597 -0.38121027 0.19250436 -0.6051799
-0.22445285 0.10038969 -0.45600972 0.32194155 -1.3905344 -0.67541444 -0.43345004 -0.22406387
-0.7467711 -0.2966032 -0.075595155 -0.26374602 0.20349382 0.27214965 0.06348132 0.062309917
-0.40655804 0.09061377 -0.029978951 -0.8537437 -0.079905644 0.008121303 -0.4853453 0.16193315
-2.0382485 -3.1151302 0.82661945 0.03494557 -0.017850861 -1.4114788 0.04706024 -1.4631982
-1.7502185 0.14371413 -1.7148724 0.6038295 -0.8178801 -1.7649859 -2.1593812 -0.07819048
-1.4921329 -2.0435665 -0.66114783 -0.018278407 -0.008263909 -1.464943 -0.014588099 -0.027029024
-0.5970968 -0.53599125 0.091758475 -1.8035907 0.09768165 0.17925294 -1.0865519 0.16185838
-2.0389383 -3.1096938 0.84141195 0.13724826 -0.26543927 -1.3798578 -0.17219919 -1.4727988
-1.7629164 0.108705126 -1.6722468 0.5259419 -0.78861463 -1.7942369 -2.1319797 0.10776667
-1.5360096 -2.0575767 -0.5875816 -0.2160785 -0.038196474 -1.4907107 0.10836114 -0.1600536
-0.58211637 -0.5086889 -0.007962364 -1.860235 0.14568323 0.033503965 -1.1137037 0.1608927
-1.0143826 -1.0294278 1.3402447 0.22571255 0.01524737 -0.5921285 -0.28833172 -0.43997627
-0.5599932 0.0047588996 -0.86476344 0.8674973 -0.41800755 -0.37478244 -0.62615657 -0.09616335
-0.29122183 -0.6348072 -0.21457787 0.12103017 0.3054271 -0.80816525 -0.007432309 0.064611204
-0.3379974 -0.30940896 -0.21536031 -0.9605386 0.014173534 0.28870422 -0.34418198 0.4700051
-0.5327794 -0.30809566 0.621134 -0.11382405 0.036813118 -0.8747458 0.057031438 -0.6951292
-0.9176875 -0.20781665 -1.0918145 0.21460238 -1.0734295 -2.9996696 -0.49468797 0.10184864
-0.29089987 -1.317784 0.15752526 0.014835526 -0.08508673 -0.5028571 -0.77051157 0.12946033
-0.5094309 -0.705087 -0.12520617 -1.0873348 0.28675234 0.017833233 -0.83063877 0.036296934
00000000: 2435 c2be f61d 3cbf 1878 863f fdc8 a0be
00000010: 0adb 18be aae0 05bf 7b02 763e 14c0 12bf
00000020: bc9f 2ebf d5ec 36bd 07ee e8be 8ccb 9d3f
00000030: 896e 9e3e b56b b63f 9b54 50bf ae50 c33d
00000040: b1ac 6ebf 9f29 05bf 930f bcbe 8f62 113d
00000050: 34cd bb3e cd7f 15bf 0794 293e a3d1 cc3d
00000060: 89c4 4bbe 88db 0cbf 6939 803d 16ca f2be
00000070: 8448 d13d dea2 7b3e d3df 0cbf 1ec4 1d3f
00000080: 6211 dfbd 52c3 37be 063e 323f 7ac2 9fbc
00000090: ba4f d5bd fe2d c3be dd1f 453e 12ed 1abf
000000a0: f8d6 65be 1c99 cd3d 1b7a e9be 86d5 a43e
000000b0: 08fd b1bf f6e7 2cbf 2aed ddbe 0071 65be
000000c0: 642c 3fbf 60dc 97be a2d1 9abd b809 87be
000000d0: af60 503e 3357 8b3e 7f02 823d af38 7f3d
000000e0: 6028 d0be b693 b93d 6b96 f5bc f28e 5abf
000000f0: 92a5 a3bd 370f 053c 2e7f f8be ced1 253e
00000100: aa72 02c0 4b5e 47c0 559d 533f 1623 0f3d
00000110: f83b 92bc 56ab b4bf 3dc2 403d 144a bbbf
00000120: 2907 e0bf cc29 133e f080 dbbf 9294 1a3f
00000130: 9760 51bf 0feb e1bf 4d33 0ac0 5522 a0bd
00000140: 36fe bebf cbc9 02c0 fc40 29bf 99bc 95bc
00000150: 5965 07bc 4183 bbbf ec02 6fbc f96b ddbc
00000160: 56db 18bf b936 09bf deeb bb3d 0fdc e6bf
00000170: 510d c83d 158e 373e 2214 8bbf 34be 253e
00000180: f77d 02c0 3905 47c0 c666 573f cf8a 0c3e
00000190: a8e7 87be 2e9f b0bf fc54 30be ac84 bcbf
000001a0: 3fa7 e1bf cba0 de3d 2f0c d6bf 21a4 063f
000001b0: a6e2 49bf 8ea9 e5bf 5b72 08c0 c6b4 dc3d
000001c0: f69b c4bf 56af 03c0 bf6b 16bf af43 5dbe
000001d0: e873 1cbd 9ccf bebf 72ec dd3d 17e5 23be
000001e0: 9405 15bf 7039 02bf 9374 02bc 2e1c eebf
000001f0: fc2d 153e 743b 093d d88d 8ebf 0ec1 243e
00000200: 4ad7 81bf 4ac4 83bf 238d ab3f 3121 673e
00000210: 1bd0 793c bc95 17bf 37a0 93be 9244 e1be
00000220: b75b 0fbf 8bf0 9b3b 2361 5dbf 4e14 5e3f
00000230: 1605 d6be 7ce3 bfbe cc4b 20bf 4af1 c4bd
00000240: 071b 95be ba82 22bf 4dba 5bbe aade f73d
00000250: f160 9c3e ebe3 4ebf ba8a f3bb e152 843d
00000260: ff0d adbe da6a 9ebe 6a87 5cbe dce5 75bf
00000270: 1c38 683c 0ad1 933e 9f38 b0be 82a4 f03e
00000280: 3b64 08bf b7be 9dbe a302 1f3f 951c e9bd
00000290: 5ac9 163d 57ef 5fbf cc99 693d fdf3 31bf
000002a0: 91ed 6abf e3cd 54be 94c0 8bbf bac0 5b3e
000002b0: 2366 89bf 96fa 3fc0 be47 fdbe 0596 d03d
000002c0: d4f0 94be 25ad a8bf 4d4e 213e b510 733c
000002d0: f441 aebd 3ebb 00bf 3f40 45bf 4091 043e
000002e0: 106a 02bf 9580 34bf 0c36 00be c92d 8bbf
000002f0: 34d1 923e 0017 923c bea4 54bf 18ac 143d

linear.bias f4 [6]
-0.66138315 -1.8916059 -2.242366 -2.3138006 -1.19012 -1.7278448
00000000: 6850 29bf 2420 f2bf ed82 0fc0 4f15 14c0
00000010: da55 98bf 052a ddbf
