results/GCN_0/checkpoint.pt (torch, 1523 bytes, 2 tensors)

linear.weight f4 [6, 16]
00000000: b509 efc0 6e6f afc0 edcf b8bf e29c a2bf
00000010: e66f 33c0 9158 4ebf 25bb 93bf 1d90 f8c0
00000020: efff 37bf 43c4 48bf 4ab9 24c1 8359 b6be
00000030: eef0 14c1 981f 5bbf 6bb7 bac0 f8f2 82bd
00000040: ef74 1dc1 ae21 13c1 1d4d 53c0 e1b9 4dc0
00000050: 9d79 bdc0 0b3e 29c0 92eb 42c0 6241 26c1
00000060: ced4 1cc0 100a 58bf 6bde 34c1 6f1a 25be
00000070: 0027 29c1 24f4 38bf d6cd 10c1 c803 61be
00000080: 6560 32c1 5e3d 21c1 022d 47c0 25c4 4bc0
00000090: bdf6 b8c0 924f 1ac0 2cad 4ac0 e18f 2fc1
000000a0: b25b 11c0 5e43 38bf d827 50c1 767e 42be
000000b0: b13a 46c1 c165 57bf a2a3 22c1 d437 da3d
000000c0: 5a00 33c1 44bb 25c1 d43f 47c0 2d16 47c0
000000d0: bee4 aac0 0a29 1dc0 1b79 35c0 fc67 2cc1
000000e0: 5ced 1ec0 8668 dcbe 1254 4dc1 0d92 86be
000000f0: 1561 43c1 0470 47bf b545 22c1 462d 003e
00000100: 75b6 00c1 3b35 c0c0 60ce bbbf 3148 93bf
00000110: 4bce 30c0 e560 82bf 2b9c c2bf 1da5 03c1
00000120: 2407 8bbf 8a7c c8be 9850 2dc1 3349 24bf
00000130: 7af1 21c1 552a 0ebf 0de6 c6c0 60b8 78bc
00000140: e627 15c1 fbaf 08c1 a43d 16c0 c9f7 fdbf
00000150: e5c9 8dc0 3b8e c0bf b55f 0fc0 a099 1ac1
00000160: ef4a e3bf f8cd 093f 40d3 29c1 5eec 49be
00000170: 0089 22c1 d2b8 a23e d953 06c1 c0dc 123c
-7.469935 -5.4823523 -1.4438454 -1.2704127 -2.8037047 -0.8060389 -1.1541487 -7.767592
-0.718749 -0.7842447 -10.295237 -0.35615167 -9.308821 -0.85595083 -5.83489 -0.06393999
-9.841048 -9.195723 -3.3015816 -3.2144701 -5.9210954 -2.6444118 -3.045628 -10.390963
-2.4504886 -0.84390354 -11.304301 -0.16123365 -10.5720215 -0.7224753 -9.050253 -0.21974099
-11.148534 -10.077482 -3.112122 -3.1838467 -5.7801194 -2.4111066 -3.1668196 -10.972627
-2.2712216 -0.71977794 -13.0097275 -0.18993554 -12.389329 -0.8413964 -10.164949 0.106551796
-11.187586 -10.358219 -3.1132708 -3.1107285 -5.3404226 -2.4556298 -2.8355167 -10.775387
-2.4832373 -0.43048495 -12.833025 -0.26283303 -12.211202 -0.779053 -10.142018 0.1251727
-8.044545 -6.006498 -1.4672356 -1.1506406 -2.7625911 -1.018582 -1.5203909 -8.227811
-1.0861554 -0.39157516 -10.832176 -0.64174193 -10.121454 -0.55533344 -6.2155824 -0.015180677
-9.322241 -8.542964 -2.3475122 -1.9841243 -4.4308953 -1.5043405 -2.2402165 -9.662506
-1.7757243 0.5382991 -10.614075 -0.19719073 -10.158447 0.31781632 -8.395471 0.008963764

linear.bias f4 [6]
00000000: f987 633f df38 4b3f 771f a13e 51ae b53e
00000010: 88d8 7c3e 6823 693e
0.8887935 0.79383653 0.31469318 0.35484555 0.24691975 0.22767413
