results/GCN_0/checkpoint.pt (torch, 5551 bytes, 6 tensors)

conv1.bias f4 [16]
000000 9e 41 2e be 29 cb ed bd fe 2d b5 bd 90 f8 46 be
       -0.17017218 -0.11611015 -0.08846663 -0.19430757
000010 db b9 c5 be 6b cc b7 3e 13 93 e7 be 00 00 00 00
       -0.3861836 0.35898146 -0.45229396 0.0
000020 00 00 00 00 4d b6 9c be 63 64 bc be d0 be ce be
       0.0 -0.30607834 -0.3679534 -0.40379953
000030 f9 33 bf be 43 43 9f ba 8b ba a5 be 68 74 9f 3e
       -0.3734434 -0.0012150783 -0.32368883 0.31143498

conv1.lin.weight f4 [16, 3]
000000 a8 2c c9 3e a5 04 bc 3e 75 fc fd 3e 1e 04 f9 3d
       0.39291883 0.36722293 0.49606672 0.121589884
000010 43 df 11 3f 5c 63 29 3f 55 5a 49 3e 57 99 97 3d
       0.56981295 0.66167235 0.19663365 0.07402294
000020 fa fe 38 3e 59 3e 49 3e a0 ed 23 3e 2d a4 b5 bd
       0.18066016 0.1965269 0.16008615 -0.08869205
000030 b7 ed c3 3e ec e9 2c 3f 5d 9e 97 3e 22 ac b9 be
       0.382673 0.67544436 0.2961301 -0.3626414
000040 94 71 53 3f 2e 7c 20 3f 30 d1 e6 3e 25 4f e6 3e
       0.8259518 0.62689483 0.45081472 0.44982257
000050 80 9d 5c be 8c 86 b6 be c0 46 bc bc 37 16 06 bf
       -0.21544456 -0.35649526 -0.022982955 -0.5237765
000060 a2 9c 9f be 1a f3 94 be 62 91 96 be 2d dc 9b 3e
       -0.3117419 -0.29091722 -0.29407793 0.30441418
000070 a3 c0 99 3e df f0 09 3d 4e b3 c2 3e 93 3d b2 3e
       0.30029783 0.03367698 0.38027424 0.34812602
000080 82 c2 c9 bc a7 65 ce 3e cf d8 1f 3f db 5c 0b 3f
       -0.024628881 0.4031193 0.624402 0.5443856
000090 81 2d c0 3e 8f 71 bd 3e 7c 53 fe 3e 27 ff 2e be
       0.37534717 0.370007 0.4967307 -0.1708952
0000a0 7d e3 dc be bf 11 50 3e 99 8a fb 3e 42 54 af 3e
       -0.4314231 0.2031927 0.4912918 0.3424397
0000b0 68 82 89 3e 41 e1 9f be ba 90 12 3f 55 6d 55 be
       0.26857305 -0.31226543 0.57252085 -0.20842488

conv2.bias f4 [32]
000000 78 cd 1e bd ee de 32 3e 05 5d fc bd 32 36 7c bd
       -0.03877017 0.17467853 -0.123224296 -0.061575122
000010 86 36 90 bc 9e e9 a6 bb a6 2d 46 3e f1 67 3d 3e
       -0.017604124 -0.0050937673 0.19353351 0.18496682
000020 b8 91 2a 3c 68 86 34 3e da 77 93 3e 5f 24 d3 bd
       0.010410719 0.17629397 0.28802377 -0.103096716
000030 ff 27 86 be 8d 8e b2 bd 59 20 3f 3e 31 73 82 3e
       -0.2620239 -0.08718596 0.18664683 0.2547851
000040 0a 2e 73 be 92 a6 6f be e0 a6 24 3e 09 92 03 bc
       -0.23748031 -0.23403385 0.16079283 -0.008030423
000050 d3 39 9f bd dc dd 75 3e 7e fa cd bd bd 3b a1 bd
       -0.07774701 0.24010414 -0.10057543 -0.07872722
000060 5f eb c6 bd a9 40 c3 bd 6d 3d 3a bd e1 6c 13 bd
       -0.09712862 -0.09533817 -0.045468736 -0.035992507
000070 af de 7c bc 62 70 66 be 6c 10 0b 3e 10 45 54 bd
       -0.015433951 -0.22503808 0.13580483 -0.051823676

conv2.lin.weight f4 [32, 16]
000000 36 a1 8d be 59 5f 09 3e aa bb f1 bd ca 6e 07 3e
       -0.27662057 0.13415278 -0.11803372 0.13225856
000010 4f be 9d bc 90 75 d5 3c be d8 23 be 54 49 12 3e
       -0.019255785 0.026057035 -0.1600065 0.14285785
000020 d9 d7 8b be 1c 81 5f 3d 94 8c 1f 3d 5b 29 3d be
       -0.27313116 0.054566488 0.038952425 -0.18472807
000030 f0 12 d9 3d d1 59 90 be ad 42 95 be 51 ed 94 bd
       0.10599315 -0.28193524 -0.29152432 -0.07271827
000040 b7 1c ff 3d 29 af 69 be ae 9e de 3d 73 93 a1 be
       0.12456649 -0.22820725 0.108701095 -0.31557807
000050 fb d5 eb bf 16 be 8f c0 72 1e a6 be 8a 89 3a be
       -1.8424677 -4.491954 -0.32445103 -0.1821653
000060 15 9a a7 3e 70 8f d4 3d ea 7d b3 be 29 89 1a bf
       0.32734743 0.10378921 -0.35057002 -0.6036554
000070 ce a8 2f bf ad 0b 41 be 66 d9 93 3e da 60 84 c0
       -0.6861695 -0.1885211 0.288768 -4.1368227
000080 5a 3e c4 3d 94 b9 b0 3e e1 ed 21 bd 8f 94 bb 3e
       0.09582205 0.34516585 -0.0395335 0.3663678
000090 92 e3 93 3f 09 f2 58 3f 7e fc ce 3e dc 92 74 be
       1.1553824 0.84744316 0.4042701 -0.23884147
0000a0 81 92 a8 be bc 56 1a 3f b4 a1 39 3f e0 88 14 3f
       -0.32924274 0.60288596 0.72512364 0.58021355
0000b0 b9 d5 20 3f 08 f6 01 be 50 c9 ce 3e f1 76 3f 3f
       0.62826115 -0.1269151 0.40387964 0.74790865
0000c0 25 5c 86 3c ce 77 f5 3e 63 a0 a0 3e 30 79 4e 3d
       0.01640136 0.47942966 0.31372365 0.050408542
0000d0 1f c5 47 3f 54 9b 99 3e d9 09 4c 3e 7f 46 84 3e
       0.7803516 0.30001318 0.19925632 0.25835034
0000e0 12 e3 20 be 86 1e bf 3d a1 03 e6 3e 7c c7 da 3e
       -0.1571162 0.09331994 0.44924644 0.4273032
0000f0 7e 75 90 3e db 6c 6a 3e d5 00 8c bc 02 90 8f 3f
       0.2821464 0.22893088 -0.01709024 1.1215823
000100 49 b3 11 3e 2c e5 06 3e 5c f1 92 bd 96 3c d4 3e
       0.14228548 0.1317336 -0.07174942 0.41452473
000110 8c 88 26 3f 74 ac 85 3f f2 cb ca 3d 90 0e 11 bd
       0.65052104 1.0443254 0.09902181 -0.03541428
000120 dc 67 8e be cc 3e 0a 3f 71 6f 4e 3f 89 39 2c 3e
       -0.27813613 0.5400207 0.80638796 0.16818823
000130 d6 ad 06 3f 7a 41 97 be a2 2f 1b 3e 5c 89 46 3f
       0.52609 -0.29542142 0.15154889 0.77553344
000140 03 4a 7e be eb 79 fd bd 96 d8 70 3a 90 09 b5 be
       -0.2483292 -0.1237677 0.0009187547 -0.35358858
000150 ef 55 09 be 11 7f b9 be c0 7e c1 3d 7a cd fd bd
       -0.13411687 -0.36229756 0.09448004 -0.12392707
000160 0d 5e 86 3e 28 65 0a 3d 9e 16 43 bd 4c 24 1e bd
       0.2624363 0.033787876 -0.04762899 -0.038608834
000170 3a c1 7a 3e 09 b7 91 be 77 7f d2 be 49 d4 5f 3e
       0.24487773 -0.28459957 -0.41112873 0.21858324
000180 3c 49 a9 3e e7 9d 71 3d 05 d4 2f 3e c3 e2 2f 3e
       0.33063686 0.058988478 0.17170723 0.17176346
000190 54 16 f3 bf be 7f 89 c0 2f 77 9e be 30 45 94 bd
       -1.8991189 -4.2968435 -0.30950305 -0.07239759
0001a0 15 3c 80 3e cc 4c 52 be 90 cc 3c bf 42 4e 08 bf
       0.2504584 -0.20537108 -0.7374964 -0.5324441
0001b0 48 0a 2f bf 58 5e cc 3d d9 6f 00 3e f1 18 81 c0
       -0.6837506 0.09978932 0.12542666 -4.0342946
0001c0 55 dd ce bc a9 85 93 3d a9 93 20 3d 62 ee f5 bd
       -0.025252024 0.07203228 0.03920332 -0.120083585
0001d0 7e de 0d c0 b0 b2 59 c0 0b 71 21 3e cc bf 80 3d
       -2.2167048 -3.4015312 0.15765779 0.06286582
0001e0 fe 98 1a 3e a9 d5 2e 3d d1 80 d3 be bb ec 3c bf
       0.15097424 0.04268423 -0.41309217 -0.7379872
0001f0 5c 33 f6 be 8a 73 5d 3e 25 8b 00 3f e8 af 6d c0
       -0.4808606 0.21626106 0.5021232 -3.7138615
000200 8a 9e cc bd 5a 02 83 3d 6c 60 8b 3e db 39 8e 3d
       -0.099911764 0.06396933 0.27222002 0.06944629
000210 60 d5 37 be 50 5b 3a bc 76 1a 4c be fc 9d cc bd
       -0.1795249 -0.01137431 -0.19931969 -0.09991071
000220 a0 3f 39 bd 07 e9 b8 be 73 6a e1 bc 0f 87 9e bd
       -0.045226693 -0.36115286 -0.02751658 -0.07740604
000230 2e 98 18 be 1c 02 b9 be bb da af be f6 d5 ff 3c
       -0.14901802 -0.36134422 -0.34346566 0.031229954
000240 d2 29 d2 bf 99 bf df b9 71 fb 3e 3e 48 46 19 be
       -1.6419013 -0.00042676626 0.18650605 -0.14968216
000250 ce 7e be be 6e fe 92 bf 0c e0 c9 bc 76 01 7e be
       -0.3720612 -1.1483896 -0.024642967 -0.24805245
000260 25 2e 80 be ad 36 c4 3e 48 ba 97 3d 77 b0 99 bd
       -0.25035205 0.38322964 0.07408577 -0.07504361
000270 ab 4b 96 3b 58 fd 14 be d9 97 0f 3e d8 6e 8e bf
       0.004586657 -0.14549768 0.14022769 -1.1127577
000280 13 ad 29 3e e7 6b a8 be 50 ab 90 3d 1b a3 3c 3e
       0.16569929 -0.32894823 0.07063925 0.18421595
000290 e9 f7 1e c0 99 ff 4a c0 73 51 c1 bd ac d0 a1 be
       -2.4838812 -3.1718504 -0.09439363 -0.31604517
0002a0 20 42 68 bd 12 55 41 be ab 96 09 bf 29 b8 ce be
       -0.056703687 -0.18880108 -0.53745526 -0.40374878
0002b0 95 ef 5b be 21 9b f4 3d 5e c4 d0 bd 95 87 7b c0
       -0.21478112 0.11943651 -0.10193704 -3.9301503
0002c0 b2 d6 28 3e 8b 35 6c 3d 27 60 57 3e e2 8c a1 3d
       0.1648815 0.05766825 0.21032773 0.078881994
0002d0 d8 8d 8c 3f a8 c5 54 3f a2 18 2f 3f 16 71 8d be
       1.0980787 0.831141 0.6839696 -0.2762534
0002e0 94 54 83 3d 8f 5c 9e 3d 2c bf bf 3e bc 0a c3 3e
       0.06412616 0.07732498 0.3745054 0.38094127
0002f0 52 26 1c 3e f8 83 d0 bd bd 6a a4 3e 9e f6 f1 3e
       0.15248993 -0.10181421 0.32112685 0.47258466
000300 61 9b bf 3e 0f 28 f9 3d 54 7d da 3e 79 f9 f7 3e
       0.37423232 0.12165844 0.42673743 0.4843252
000310 47 36 a5 3f 3a 42 35 3f 78 64 17 3f 00 a3 8c 3d
       1.2907189 0.7080418 0.5913768 0.06867027
000320 56 55 77 be d5 c4 0d 3f 36 07 2a 3f 81 bf 33 3f
       -0.24153647 0.55378467 0.66417253 0.70214087
000330 58 14 e0 3e ed 58 4e be 16 ed cf 3e 91 4e 05 3f
       0.4376552 -0.2015111 0.4061057 0.5207301
000340 66 d6 aa 3c 4c d6 1b 3f 94 e6 c1 3e d5 98 29 3e
       0.020854186 0.60873866 0.3787123 0.16562207
000350 23 2a a8 3f c2 22 1e 3f e7 6c bf 3e 19 b1 35 be
       1.3137859 0.61771786 0.37387773 -0.17743339
000360 60 d6 fe bd e2 2a b0 3e c1 36 e9 3e 56 65 c7 3e
       -0.124432325 0.34407717 0.45549586 0.389445
000370 9c e8 2c 3f 66 93 e7 3c 7a 60 c4 3d 8f bc 81 3f
       0.67542434 0.028268527 0.09588714 1.0135669
000380 25 e7 e3 3d bc c7 6f be 2f 6d 78 3e df d2 25 3e
       0.11128072 -0.23416036 0.242604 0.16193722
000390 d2 89 0f c0 2f 0a 84 c0 fc 68 0e bf 26 56 1d be
       -2.242787 -4.126243 -0.55628943 -0.15364894
0003a0 28 40 61 3d 65 6f 46 bd 0d 47 f7 be 42 f0 ab be
       0.054992825 -0.048446078 -0.48296395 -0.3358174
0003b0 b3 0e 8a be 51 54 a8 3e 16 36 63 3d eb f3 89 c0
       -0.2696434 0.32876828 0.055471502 -4.311025
0003c0 28 6b 7e be 56 17 36 bd 34 92 f8 bb 8b 06 a9 bd
       -0.24845564 -0.04445585 -0.007585788 -0.08253201
0003d0 42 c9 0e c0 c7 cb 9c c0 57 44 c2 bd 20 87 69 3d
       -2.2310338 -4.899875 -0.09485691 0.05701363
0003e0 e4 28 8e 3d c4 e4 74 3d 64 b4 db be 6b 9a 94 be
       0.06941393 0.05978848 -0.42911065 -0.29024062
0003f0 39 7d 20 bf 82 f0 c1 be da 4b b9 3e 99 68 90 c0
       -0.62691075 -0.37878805 0.36190683 -4.5127683

linear.weight f4 [6, 32]
000000 ee 9d c4 bd a1 8a 8b 3f 3e cb 21 be 1f 33 52 be
       -0.09600435 1.0901681 -0.15800187 -0.20527314
000010 d3 ed 71 be 5b 5f c1 3c 92 21 95 3f 0c 71 8b 3f
       -0.23625879 0.02360504 1.165087 1.0893874
000020 86 b9 82 3e 3b f8 1c 3f 07 04 40 3f 9c 44 98 be
       0.25532168 0.6131627 0.75006145 -0.29739845
000030 10 d6 05 bd dc fd 9c be 2b 24 68 3f 35 b5 66 3f
       -0.03267485 -0.3066243 0.9068019 0.9012025
000040 73 4a ba bc 20 6a 29 be 23 21 90 3f 55 52 bf bd
       -0.022740578 -0.1654439 1.1260113 -0.093418755
000050 77 cb 16 be 25 27 a1 3f bc 99 3a be 37 83 0f bd
       -0.14726053 1.2590071 -0.18222708 -0.035037246
000060 1a b7 36 be 20 71 6c be ad 65 c9 bb c5 7a 34 be
       -0.17843285 -0.23090029 -0.006146154 -0.17624958
000070 a1 19 85 be 9b 07 11 be 4f c6 c7 3e df e9 aa be
       -0.25996116 -0.14163058 0.39018485 -0.33381554
000080 fa 34 ea 3d a6 8c 78 3f 3a ab f5 be 35 01 d7 be
       0.11435886 0.9708961 -0.47982198 -0.41993108
000090 b0 ca 2e bf 18 98 fd 3d ac 29 82 3f d5 69 8d 3f
       -0.68278027 0.12382525 1.0168967 1.1047922
0000a0 12 d9 e9 bc e9 01 16 3f 70 9b 0d 3f d4 1e d4 be
       -0.02854589 0.58596665 0.55315304 -0.4142977
0000b0 49 ee 70 be e8 23 03 bf 16 a3 64 3f e1 58 64 3f
       -0.23528399 -0.51226664 0.8931135 0.8919812
0000c0 27 4e bd be ca 8b bd be f0 ef 86 3f c8 8c ef be
       -0.36973688 -0.37020713 1.0541973 -0.46787095
0000d0 08 40 07 bf 9d 88 90 3f f4 b9 8c be 1b bb 07 bf
       -0.5283208 1.1291691 -0.2748562 -0.53019875
0000e0 3c 25 19 bf 81 f3 45 be c3 5e 88 3d bf 79 11 bf
       -0.5982244 -0.1933117 0.06658699 -0.56826395
0000f0 ef 05 3a bf 39 75 bd be bf ac cc 3d af 28 1c bf
       -0.72665304 -0.37003496 0.09993886 -0.6099958
000100 f8 a2 f0 bd ed df 8d 3f 57 0f 82 bf 57 cc 42 bf
       -0.11749834 1.1083962 -1.0160931 -0.7609305
000110 49 31 97 bf 2a 16 be 3d 49 b1 96 3f a0 ac a2 3f
       -1.1811916 0.09281571 1.1772853 1.2708931
000120 35 14 5d 3d 93 80 0d 3f 24 e4 4c 3f 97 82 5f bf
       0.05397435 0.55274314 0.80035615 -0.8730864
000130 92 6e 46 bf 6b 15 9b bf a5 20 78 3f 12 d6 93 3f
       -0.77512467 -1.2115911 0.9692481 1.1549704
000140 4e 50 6e bf d0 00 79 bf b4 73 a0 3f 7d 86 5d bf
       -0.93091285 -0.97266865 1.253531 -0.8653334
000150 df 17 76 bf be b7 c7 3f 19 cb 58 bf 2d f1 6c bf
       -0.96130174 1.5602949 -0.846849 -0.92555505
000160 4b 50 8f bf a8 fa 63 bf 62 9e 06 bb f9 37 8c bf
       -1.1196378 -0.89054346 -0.002054118 -1.0954581
000170 46 36 81 bf 54 0e 53 bf 38 9f 9b 3e da 9c 8f bf
       -1.0094688 -0.8244374 0.30394912 -1.1219742
000180 15 01 9b bd a4 98 95 3f 5d 97 8f bf a3 eb 43 bf
       -0.07568566 1.1687207 -1.1218067 -0.7653143
000190 d2 ca a2 bf 40 3d 7d 3d 4d 09 96 3f bd 10 b5 3f
       -1.2718146 0.06182599 1.1721588 1.4145733
0001a0 e3 8d ae 3c 12 99 1f 3f ac 49 33 3f 86 69 53 bf
       0.021307891 0.6234294 0.7003429 -0.8258289
0001b0 12 26 3b bf c5 01 96 bf 35 dc 7a 3f 23 58 97 3f
       -0.73104966 -1.171929 0.9799226 1.1823772
0001c0 0f 85 79 bf 52 8e 77 bf 42 13 9d 3f 2d c9 3c bf
       -0.97468656 -0.9670154 1.2271502 -0.7374447
0001d0 39 6d 76 bf f9 03 cd 3f 1e 86 61 bf 94 66 79 bf
       -0.9626041 1.6016837 -0.8809527 -0.97422147
0001e0 82 55 73 bf f8 db 59 bf 0d 61 37 3d 28 6a 8a bf
       -0.9505235 -0.8510127 0.04477029 -1.0813646
0001f0 b5 2e 83 bf cc b2 4c bf a0 df 0d 3e ec 82 a3 bf
       -1.0248629 -0.7996032 0.13854837 -1.2774329
000200 bc 56 46 3d 73 ec 8d 3f 8f 2c 9f be 97 0f fd bd
       0.04842256 1.1087784 -0.31088683 -0.12356489
000210 9c fb da be d0 03 a5 bd 95 41 86 3f cc 54 92 3f
       -0.42770088 -0.08057368 1.0488764 1.1432128
000220 2f 6c 2f be bb 8d 37 3f da b2 25 3f c1 b3 95 be
       -0.17131113 0.7170064 0.6472603 -0.29238704
000230 c0 ea 51 be d2 10 b0 be 3e 13 54 3f 24 36 86 3f
       -0.20499706 -0.34387833 0.8284186 1.0485272
000240 33 38 31 be f8 9d 97 be 0a 5b 93 3f 78 91 9b be
       -0.17306595 -0.29612708 1.1512158 -0.3038442
000250 72 f2 4f be d5 bd b5 3f 39 b1 a3 be 3b bd 8d be
       -0.2030733 1.4198557 -0.31971148 -0.27683434
000260 4e 14 b2 be 80 9a 92 be fe 26 e1 3d 75 a4 55 be
       -0.34781116 -0.286335 0.10993765 -0.20863517
000270 e6 d6 58 be 05 9e 27 be 4f df 4b 3e ef b6 de be
       -0.21175727 -0.16368873 0.19909404 -0.43498942
000280 d6 85 bf 3d f6 8a 70 3f 16 d2 db be fc 67 db be
       0.09351699 0.9396204 -0.4293372 -0.4285277
000290 bd b8 1d bf e8 58 97 3c d3 93 64 3f c5 bf 95 3f
       -0.61610013 0.018475011 0.8928806 1.1699148
0002a0 8e 88 67 3e 27 08 63 3f a8 bb 40 3f e0 ae 97 be
       0.22610685 0.88684314 0.7528634 -0.29625607
0002b0 7f aa 54 be fd e2 f7 be df 15 5c 3f b4 6b 86 3f
       -0.20768164 -0.48415366 0.8597087 1.0501618
0002c0 18 78 b0 be 95 9a a5 be 1a 16 89 3f e2 94 01 bf
       -0.34466624 -0.323445 1.070987 -0.506178
0002d0 27 80 e6 be f7 a7 ae 3f c3 ba 99 be 6a ec e8 be
       -0.45019647 1.3645009 -0.300253 -0.4549287
0002e0 ab a0 b4 be f9 63 5c be 40 14 c7 3d 51 00 01 bf
       -0.3527883 -0.21522512 0.09720659 -0.5039111
0002f0 88 74 11 bf 4f 3a 83 be 01 dc d9 3d 3f d1 14 bf
       -0.5681844 -0.25630423 0.106376655 -0.58131784

linear.bias f4 [6]
000000 5a df 86 bd 82 41 ba be d4 3e cf be a6 c8 6a be
       -0.0658557 -0.36378103 -0.40477622 -0.22928104
000010 41 bb 9c be 95 01 cc be
       -0.30611613 -0.39844957
