results/GIN_1/checkpoint.pt (torch, 4592 bytes, 4 tensors)

conv1.nn.fc1.weight f4 [64, 3]
00000000: ad7c abbd 47a4 a53d f626 023f 85ea b23e
00000010: 5635 8e3c c175 cd3d 4d4b 563d 8e3d 683d
00000020: af71 993d 7d06 bd3e 1c42 153f ba9d 803f
00000030: 9fdd 213d c5e2 cd3f 11e4 123f 677e f53d
00000040: 21ff 193e 420c ba3e a6e4 f43e 167d 553f
00000050: e64c dc3f 41fe 92bf 8139 eabd 37f3 553f
00000060: 8078 fdbd 20e1 07bf a86e 8cbd 4a36 83bd
00000070: 6e22 e93d 6417 8a3c cf70 913d f37e a03e
00000080: a60b 223d 2572 84be 6c1f 7bbe b3b3 663e
00000090: 855a abbd 4b8c 7c3e bc87 5a3f 0a5c e5bf
000000a0: e85c e2be 21ac 883f 0dc1 58bf 5f7f d6be
000000b0: 02ee f83d 74e1 74bf c6aa acbb c407 0f3f
000000c0: 801f f2bd 467a 17be fad1 1fbe 15c5 b6bc
000000d0: 6b78 143f 8d6a 283e 09d1 b1bf 817d c8be
000000e0: 7603 8fbd fe47 a1bf d575 c8be 1e24 12bf
000000f0: c68f 55bf f6ae 93bf e4f3 91be 67bc febe
00000100: 0170 adbe 83b0 dfbe 8915 03bd d45b d7bd
00000110: 511c 2cbf a0bd 72bf 8850 25be ca60 ab3e
00000120: 3317 10bf cdb2 30bd 9a30 9e3e 9f9c fa3e
00000130: 66d3 d83d 6d0b 203d 3a64 263c 3cab a4bd
00000140: 227d a9be a905 a6be acad eb3e aa57 f93e
00000150: dbc1 3dbf fc7b 0cbf dc9e 21bf 809e 093d
00000160: a0d1 edbc 3eef 0ebf efb2 023d 3aa7 75be
00000170: 8ac2 58be f656 5dbf c9a3 86be 0547 babd
00000180: 7807 0bbf a0f5 1d3d 3665 d2be 3a4c 20bf
00000190: 3fde f7bc 3653 083f 7351 23bf 6b2f 68bd
000001a0: c0ff 5dbd 2b07 b1bf 1053 143e 3ec1 393c
000001b0: e471 e83e 130d 443e 50ef 153e bf3f 09bf
000001c0: c13a 753f d16a 753f f44d fabd eea7 723e
000001d0: 21e5 f5bd 48ab a0be fe79 b03e 567b d2bd
000001e0: c0ee 16bf bc45 5ebe 512f 3d3e f505 9bbe
000001f0: 9d05 153e 3323 70be ae89 94be f289 77bc
00000200: 529f 83be 21b3 c93e 5ef4 cd3d 5393 133f
00000210: c401 5f3e 0dfb bcbe f48b 683d f0ba c13f
00000220: be73 c63f c04d c63f b8d4 b53e 0639 263f
00000230: 4465 563f 4f4c 963d 58e2 353f c291 513e
00000240: 16eb 9dbe 3cb3 8f3d 1497 6dbe b217 92be
00000250: f21e a73d 22f4 09be 71de 5e3d a310 9d3f
00000260: 0a90 4b3f 7290 6abf e16b 55bf d3fd a73e
00000270: f631 df3e bf2e cc3d 918e 093f 6ee8 35bf
00000280: 8c84 e9bd 24de 883e ee25 81bf 7023 80be
00000290: 37f0 00bf d765 44bf dad3 83bf 3f82 ee3d
000002a0: 2ea0 84be df0a de3e d5bc 5c3e 8ce0 4d3e
000002b0: 83a2 813f f798 333f c3b6 c3bd adb6 b5bb
000002c0: d02c 233f 8236 acbe 4b8e a2be 5208 6a3f
000002d0: 98c6 803f 4a78 0a40 946c 473f 42df 2dbd
000002e0: 2e32 58be 3d77 12bf 517c a03f cdef 7d3f
000002f0: 977c 883f e594 9e3e dce5 03bc 131f 10be
-0.083733894 0.08087974 0.508407 0.3494455 0.017359417 0.100322254 0.052317906 0.056699328
0.074923865 0.36919013 0.58304 1.0048134 0.039517995 1.608483 0.5737925 0.11987
0.1503873 0.36337477 0.47830695 0.8339399 1.7210968 -1.1483842 -0.11436749 0.8357424
-0.12376499 -0.5307789 -0.068570435 -0.06406839 0.1138352 0.016856857 0.07101595 0.31346855
0.03956189 -0.25868335 -0.24523705 0.22529487 -0.083668746 0.24662893 0.85363364 -1.7918713
-0.44211507 1.067753 -0.8466957 -0.4189405 0.121547714 -0.95656514 -0.005269381 0.55871224
-0.118224144 -0.14792737 -0.15607443 -0.022310773 0.57996243 0.16446896 -1.3891917 -0.39158252
-0.06983082 -1.2600095 -0.391524 -0.5708636 -0.83422506 -1.1537769 -0.28506386 -0.49753115
-0.33874515 -0.43689355 -0.03200296 -0.10515562 -0.6723071 -0.94820595 -0.16144001 0.33472282
-0.562854 -0.043139268 0.30896455 0.48947617 0.10587196 0.039073396 0.010155732 -0.08040473
-0.3310328 -0.32426193 0.4603094 0.48699695 -0.74123925 -0.54876685 -0.63133025 0.033598423
-0.029030621 -0.55833805 0.031908926 -0.23989573 -0.21167961 -0.86460817 -0.26296833 -0.09095577
-0.5430827 0.038564324 -0.41092843 -0.6261631 -0.030257342 0.5325197 -0.63796157 -0.056685846
-0.05419898 -1.3830312 0.14484811 0.011337576 0.45399392 0.19145612 0.14642072 -0.53612894
0.95792776 0.95866114 -0.122219 0.23696873 -0.120065935 -0.31380677 0.34468073 -0.10277431
-0.58958054 -0.21706289 0.18475081 -0.30277982 0.14552923 -0.23450927 -0.2901129 -0.015108572
-0.2570749 0.39394477 0.10056375 0.57646674 0.21778017 -0.36910287 0.056774095 1.5135174
1.5504072 1.5492477 0.35513854 0.6493076 0.8374827 0.073387735 0.710485 0.20465758
-0.3084342 0.07016608 -0.23202163 -0.28533703 0.08160199 -0.13472036 0.054411355 1.2270702
0.7951666 -0.91626656 -0.83367735 0.3281084 0.43592805 0.099698536 0.53733164 -0.71057785
-0.114022344 0.2673198 -1.00897 -0.25027037 -0.5036654 -0.76717895 -1.0299027 0.11645936
-0.25903457 0.4336767 0.21556409 0.20105189 1.012772 0.7015528 -0.095563434 -0.0055454583
0.63740253 -0.33635336 -0.31749186 0.91418946 1.0060606 2.1635919 0.7790005 -0.042449243
-0.21112892 -0.57213193 1.2537938 0.9919403 1.0663022 0.30972973 -0.008050408 -0.14074354

conv1.nn.fc1.bias f4 [64]
00000000: 01cb 02bf 6190 a740 0ff8 4840 499e b440
00000010: 96ce 4c3d 7d4f 863f 3c02 75bf 7ee9 4b3f
00000020: bc16 e5be 05c5 88be 6a05 50bf 2aa4 d4be
00000030: cfc7 1b3c b0d5 9fbf 82ee 513f e4a5 c43e
00000040: a8f7 de3d b8dc 80bf 8454 9e3f 5151 8f3f
00000050: 7505 413f 6363 a93e fcda 0ebe a635 06be
00000060: 9e2c 0abe 2e91 9c3f 55f9 a0be a58a 2fbf
00000070: 0fad 703e 7874 05bf 8e6d 21bf 5d7d 483e
00000080: d6bd 04bf c46e f4bc 1ba5 bbbc c5ac 783e
00000090: 044e a840 e10e b940 ff8c 13bf f619 5cbe
000000a0: 12f9 d7bd 4f68 d3be b018 b5bd 4932 b540
000000b0: 6a98 8cbf 5b45 26c0 577b 9f3f 9e21 76bf
000000c0: ff6b 3abe b7c3 c8be 9985 993d 1572 693e
000000d0: abd0 ad40 3452 fe3e 74a2 583f 177f 5e3e
000000e0: 6b40 e6be 6834 fb3d d2ee e9be 2df6 833e
000000f0: 4286 14bf 96b9 1abe 6f10 dcbf 70bb 9b40
-0.5109101 5.2363744 3.1401403 5.644322 0.050001703 1.0493008 -0.95706534 0.79653156
-0.44743907 -0.26712814 -0.8125826 -0.41531497 0.009508087 -1.2487087 0.8200456 0.38407815
0.108870804 -1.0067358 1.2369542 1.1196691 0.7539895 0.3308364 -0.13950723 -0.13106403
-0.13493583 1.2231805 -0.31440225 -0.6857093 0.23503517 -0.5213084 -0.6305779 0.19579072
-0.51852167 -0.029837973 -0.022905877 0.24284656 5.2595234 5.7830663 -0.5763702 -0.21494278
-0.10545553 -0.4129052 -0.088425994 5.6623883 -1.0984013 -2.5979831 1.2459515 -0.96145046
-0.1820526 -0.3921182 0.07496185 0.22797425 5.431722 0.4967209 0.84622884 0.21728168
-0.44971022 0.12265855 -0.45690018 0.25773755 -0.5801736 -0.15109858 -1.7192515 4.8666306

conv1.nn.fc2.weight f4 [6, 64]
00000000: 4ac2 aabe d2a4 2ebf 57a2 9abe 2872 5bbe
00000010: 5637 4dbf 005d 86bf 2302 3abf 14e5 afbc
00000020: c8df 2bbd c8b9 a9bc ce4c 3fbe 4acc 35be
00000030: 3950 48bd 6dde ecbd 3517 403e 40b9 8fbe
00000040: 9c05 883d 04de 3abe 6d45 663e 57f9 843e
00000050: 6de2 c03e 3d9a aa3e 044b cbbd bf9e 37bf
00000060: 3ac7 bdbe eedb 0a3f ca6b 5d3d 7d1e 943d
00000070: b792 eabe 0006 363b d64d afbc 4556 223b
00000080: b0b3 00bd 7dde d9be 181b 9dbe 4425 19bf
00000090: d564 d2be 69c6 a8bd e47b 6abd c4e8 8a3d
000000a0: e4c5 94be a095 90bd bfd7 683c bd42 babe
000000b0: dfee 5fbd ec3c 01c0 e6a0 6c3e 1149 51bf
000000c0: a0a1 033c 11fa 08be 76cc 16bf 46f0 abbf
000000d0: 80e0 edbe c04b 9e3e c6eb 833e 1764 8bbf
000000e0: 7142 08be 8556 0dbf 6e4e 9bbe 761b 5cbc
000000f0: 7488 bebf bd1d 34bd 3c5b 92bf 02d3 dbbe
00000100: dfcf d9be fe33 b13e 664c acbd 5911 ed3e
00000110: d1a7 65bf 3262 bebd d22c 51bf 57d5 ffbf
00000120: dca1 193d b59f c4be d0d6 5ebe 845a ffbc
00000130: 181d 11bf 7dcf bfbe 5530 1fbe 355e 5abf
00000140: a47b 91bd c1ee adbe a294 14bf b016 0bbf
00000150: a06e 5f3f b1ee d03e cf8e f2bd fb92 3b3b
00000160: 99a7 943c b104 053f 0d55 1dbe 5dbf c6be
00000170: b812 ca3d be0d dcbd ce58 e5bc e135 fa3e
00000180: f42d e4bd 5fe8 17bf 95ff 83bf 268e 0cbe
00000190: 5a26 1d3f 0f93 9abf 6c62 9cbe d5d7 60bf
000001a0: da7b 34be 1d72 d9be 8399 e1be 1b7e 0f3f
000001b0: bda2 adbe 9d7d c9bf b9de 0e3f 0caf 80be
000001c0: 8695 4fbe 9c12 cbbe 081c 29bf e815 1b3e
000001d0: 4c59 003f 3a3a 0a3e dddb 66bf 61ba d33d
000001e0: 58bc 12bf 9044 6abe 3366 b3bd d5e0 44bf
000001f0: b959 14be e8e6 073c e70f 6dbf 974c db3e
00000200: 8d28 68bf f924 0fbf 389c 53bf a8dd 57bf
00000210: b202 b3c0 c541 48bf ff02 d2bf b9e4 74be
00000220: aa01 d83d 7027 32bf 331b cdbe 65af 27be
00000230: a130 2dbf 1594 7fbd 64a8 57bf 58ff e4be
00000240: 92a9 fabd 9296 0ebf d44c f63d 9db0 ae3d
00000250: d8cc 3d3e 73f8 723e 9ae5 92be 4b88 453f
00000260: 1cba bbbe d144 853d d796 7a3c 6b70 f6be
00000270: e4d7 113f 4a9e b83d 5c27 b1bd 3b99 08bf
00000280: d674 883d 3aa5 b2be 9525 4cbe f568 b0be
00000290: 61b9 26bf 1d7d 82bf aefe c4be 4c49 51bf
000002a0: 88d6 38be e558 17bf 7820 9abe e9d1 32bf
000002b0: 9f7b 21bf ddc8 b9bf 023e 72be 3e8b 79bf
000002c0: c923 5ebe 6de6 1bbf 8716 95c0 babe ac3e
000002d0: c232 03bf 7767 d1be 4276 b4be 0d76 a53e
000002e0: 14c1 6ebf d56b cec0 6400 d3be a6b9 b5be
000002f0: 2659 61c0 c0de 6cbe a7dc 14c0 5657 0fbf
00000300: a12d 5fbf 2558 3fbf a3e0 23bf e9a8 5fbf
00000310: 5ea2 98c0 6d97 41bf f772 e0bf 4293 bcbd
00000320: 0039 b33a 00cf 39bf a492 01bf 37ef cbbd
00000330: 9ac0 39bf d166 e6bc 3675 98bf 1ae6 dcbe
00000340: 80d0 afba 8c22 dabe a822 913e e972 c53d
00000350: 5359 a63e 3888 853e a066 debe 8d7c 0b3f
00000360: 2650 cabe 42f9 abbd 3636 cdbc a079 c4be
00000370: 1ff3 533f f0ea 2abc 97f8 cabd 25d0 eabe
00000380: cc66 3f3d 554e a3be dd6b 86be c50f 63be
00000390: 8224 14bf a126 61bf bd8e 00bf 6dcf 4fbf
000003a0: 1037 2ebe cba8 12bf 1d27 08bf 7a51 27bf
000003b0: 8f19 1fbf e815 c4bf 33e0 49be 82c4 5ebf
000003c0: 1b45 2fbe 9014 30bf dbe1 85c0 3dc3 b63e
000003d0: 60bf d0be bb42 eebe 3976 edbe b07a 853e
000003e0: 7654 59bf c662 c2c0 ed9e e7be 3b7e 98be
000003f0: 509e 5fc0 9abd 20be e62c 13c0 3290 09bf
-0.33351356 -0.68220246 -0.3020198 -0.21430266 -0.8016256 -1.0497131 -0.7265951 -0.021471538
-0.04196146 -0.02071847 -0.18681642 -0.17753711 -0.04890463 -0.11565862 0.18758853 -0.28071022
0.06641695 -0.18248755 0.22487421 0.2597148 0.3767275 0.333208 -0.099264175 -0.717266
-0.3706606 0.54241836 0.054057874 0.07232378 -0.4581506 0.0027774572 -0.02139942 0.002477066
-0.031421363 -0.42552558 -0.30684733 -0.5982249 -0.41092554 -0.08240969 -0.057247058 0.06782678
-0.2905723 -0.07059789 0.014211594 -0.36379042 -0.054671165 -2.0193434 0.23108253 -0.81752115
0.00803414 -0.13376643 -0.5890573 -1.3432701 -0.46460342 0.30917168 0.25765818 -1.088992
-0.13306595 -0.55210143 -0.30333275 -0.013434282 -1.4885392 -0.043973673 -1.1434093 -0.42934424
-0.42541406 0.3460998 -0.08413009 0.46302298 -0.8970919 -0.09296073 -0.81709015 -1.9986981
0.037507877 -0.38403097 -0.21761632 -0.03117109 -0.5668502 -0.37462988 -0.15545781 -0.853
-0.07103661 -0.33971217 -0.58039296 -0.54331493 0.87278175 0.40807107 -0.11843645 0.0028621543
0.018146323 0.51960284 -0.15364476 -0.38817874 0.098668516 -0.107448086 -0.027996447 0.4886923
-0.11141577 -0.59338945 -1.0312372 -0.137261 0.61386645 -1.2076129 -0.3054384 -0.87829334
-0.1762537 -0.42469874 -0.44062433 0.56051797 -0.33913222 -1.5741459 0.558086 -0.2513355
-0.20271882 -0.39662635 -0.660584 0.15145075 0.50136256 0.13498774 -0.90179235 0.10338283
-0.5731864 -0.22877717 -0.08759727 -0.76905566 -0.14487351 0.008294798 -0.9260239 0.4283187
-0.90686876 -0.5591579 -0.82660246 -0.84322596 -5.594079 -0.78225356 -1.6407164 -0.23915376
0.105471924 -0.69591427 -0.40059814 -0.16375501 -0.67652327 -0.06239708 -0.8424132 -0.44726062
-0.12239374 -0.556985 0.120263726 0.0852978 0.18535173 0.23727588 -0.28690797 0.7716109
-0.36665428 0.06507266 0.015294752 -0.48132643 0.5697005 0.09014566 -0.08650085 -0.5335881
0.0666291 -0.34891683 -0.19936211 -0.34455076 -0.65126616 -1.0194432 -0.38475555 -0.8175247
-0.18050587 -0.5912002 -0.30102897 -0.6985155 -0.63079256 -1.4514424 -0.23656467 -0.9747809
-0.21693338 -0.60898477 -4.659 0.33739263 -0.51249325 -0.4089925 -0.35246474 0.32316628
-0.93263364 -6.450663 -0.41211236 -0.354932 -3.5210662 -0.23131847 -2.3259676 -0.5599264
-0.87179 -0.7474387 -0.64014643 -0.8736711 -4.76982 -0.7562168 -1.7535084 -0.09207775
0.0013673604 -0.7258148 -0.5061438 -0.09957736 -0.7255951 -0.028125199 -1.191077 -0.43144304
-0.0013413578 -0.42604482 0.28346753 0.09641058 0.32490024 0.2608049 -0.43437672 0.54486924
-0.39514273 -0.083971515 -0.025050264 -0.38374043 0.8279285 -0.01043199 -0.09910696 -0.45861927
0.046728894 -0.318957 -0.26254168 -0.22173984 -0.57868207 -0.8794957 -0.502178 -0.8117588
-0.17013192 -0.5728881 -0.5318468 -0.653587 -0.62148374 -1.5319185 -0.19714431 -0.870186
-0.17116205 -0.68781376 -4.1838202 0.3569583 -0.40771008 -0.46535286 -0.4637926 0.26070166
-0.848945 -6.0745573 -0.45238438 -0.29783806 -3.4940376 -0.15697327 -2.2996154 -0.5373565

conv1.nn.fc2.bias f4 [6]
00000000: bcfd 25c0 8342 82c0 9b48 17c0 2ec3 fcbf
00000010: 58c0 c1bf cd9a e2bf
-2.5936117 -4.070619 -2.3638065 -1.9747064 -1.5136824 -1.7703491
