results/GIN_3/checkpoint.pt (torch, 15403 bytes, 8 tensors)

conv1.nn.fc1.weight f4 [64, 3]
000000 1c 53 b6 3e 89 1e df 3d 4d 6d 32 be aa 46 40 3e
       0.35610282 0.10894496 -0.17424507 0.18776956
000010 70 9b 3f 3e 07 bc 0b 3f 5c 0a 21 be fc f3 27 3f
       0.18711638 0.5458378 -0.15726608 0.65606666
000020 60 88 c0 be 8c 44 b2 3e e1 c4 1b 3f 71 3b ef be
       -0.37604046 0.34817922 0.6084729 -0.46725038
000030 ce 56 1d 3e 39 46 00 3f 89 4b 91 be 5f 17 d3 be
       0.15365145 0.5010715 -0.2837794 -0.41228768
000040 de 4d e4 bc ef ea 9a 3d 42 fc f3 be 92 b9 cc bd
       -0.027869161 0.07564341 -0.47653395 -0.09996332
000050 f8 79 b5 3e 35 f4 80 bd 4c cf a6 be e1 f9 ab 3e
       0.35444617 -0.06296579 -0.3258003 0.3358908
000060 42 72 18 be ec 2a 63 be 50 15 9a bd 01 4f 05 bf
       -0.14887336 -0.22184342 -0.07523596 -0.52073675
000070 a8 c6 9b bd 23 de 97 be 0d f9 4b be e6 b3 4d be
       -0.0760625 -0.29661664 -0.19919224 -0.20088157
000080 5d ec 01 3f 97 27 e6 be 86 f5 3a 3f 34 be 2f be
       0.50751287 -0.4495208 0.7303089 -0.171624
000090 7f 4a ab 3e a7 c5 20 3d 1a 10 12 3f 66 a2 85 3e
       0.33455274 0.039250996 0.5705582 0.26100463
0000a0 ac ce 74 3e df 8d ca 3e 58 e5 08 3f 41 32 b0 3e
       0.23906964 0.39561364 0.5347495 0.3441334
0000b0 03 09 66 3e 24 f7 9b be 79 41 5e 3e cb 32 fa 3c
       0.22464375 -0.3046199 0.21704663 0.030541798
0000c0 08 8e f5 be b1 63 c4 3e 9f 09 d6 3d ab 58 99 3d
       -0.47959924 0.38357309 0.10451054 0.07487615
0000d0 b7 ce 1a 3f d5 c8 c0 be 6a c5 f6 3d fe 8b ee 3e
       0.6047167 -0.37653223 0.120493725 0.4659118
0000e0 ed be f4 be bf 39 0b 3e 19 f9 c8 3d c2 8c 0e 3f
       -0.47801915 0.13596247 0.098131366 0.5568353
0000f0 6f 6d 11 bf d3 c4 84 bd 29 e2 1e 3e 7a ac 6b 3e
       -0.5680761 -0.06482854 0.15515961 0.23015013
000100 03 87 b2 be 5e 16 13 3e 08 aa b5 be 6e da b3 be
       -0.3486863 0.14364001 -0.35481286 -0.35127586
000110 88 3d b6 3c 2c 44 21 3f 64 59 9e be 99 68 b9 be
       0.022246137 0.6299465 -0.30927575 -0.36212614
000120 5a 2e 09 bf c2 ae e7 3e 3e eb e8 3e f3 0a 13 3f
       -0.5358635 0.45250517 0.45491976 0.5743858
000130 75 18 69 3e 19 80 53 be ef da 3c be d4 87 31 bf
       0.22763236 -0.20654334 -0.18442892 -0.6934788
000140 0c 4a 02 3e 31 45 32 be 6c 01 66 be 90 8a 82 3c
       0.12723559 -0.17409207 -0.2246148 0.015935212
000150 c5 af a6 be f5 43 9a be 20 72 ff bc 21 b2 90 3d
       -0.32555977 -0.30129972 -0.031182349 0.070652254
000160 5f a9 0b bf 14 76 b9 3e 61 6f be be a5 58 b3 3e
       -0.54555315 0.362229 -0.3719435 0.35028568
000170 f6 b8 c4 be db 0f 94 be 1f 04 a1 be fe b0 ae be
       -0.38422364 -0.28918347 -0.31448457 -0.3411941
000180 1a 60 79 3e 02 5c c8 be 06 3d a2 be 51 06 06 bf
       0.24353066 -0.39132696 -0.31687182 -0.5235339
000190 76 37 23 3e 5d 18 ca 3d 8d 19 0b bf 08 ec b5 be
       0.15939125 0.09867928 -0.5433586 -0.3553164
0001a0 c0 0c 01 bd 5e 87 27 be 0a 8c 47 be 20 43 b0 be
       -0.0315063 -0.16360232 -0.19487014 -0.34426212
0001b0 29 09 4c 3e 23 5c 7f be 90 65 1d 3f 99 ca 53 3e
       0.1992537 -0.24937491 0.614831 0.20682754
0001c0 56 ac e7 bd 6f 79 e2 be ca 31 e4 3e 27 80 f6 bb
       -0.11312167 -0.4423327 0.44569236 -0.007522601
0001d0 cc d7 06 3f 70 51 af bd e6 68 7e be bb 7e 00 bf
       0.5267303 -0.08560455 -0.24844703 -0.50193375
0001e0 ab ca 39 3e f7 b6 89 be d5 41 9f 3e d6 7d 9e 3d
       0.18143718 -0.26897404 0.31104913 0.07738845
0001f0 ab 5a 12 3f b0 89 d7 be 2c 07 58 be 7c 75 e9 be
       0.571696 -0.42097235 -0.21096486 -0.45597446
000200 9a 88 a9 be c1 08 d0 be 51 32 43 3f 8d 62 f5 be
       -0.3311203 -0.4063168 0.7624865 -0.4792675
000210 52 cd 8e 3e 75 5d 99 be 3a 77 ac be 10 e8 28 3e
       0.27891022 -0.29954115 -0.33684713 0.16494775
000220 28 19 16 3f d9 53 d8 3d 1b 1e ff 3e 41 81 ae 3e
       0.58632135 0.10562868 0.49827656 0.34082988
000230 47 d9 7a bd 36 bb f7 be 01 7f a0 bd e6 65 e7 3e
       -0.061242368 -0.48385018 -0.07836724 0.4519493
000240 5d 06 6b 3e 8f bd 22 3e 6f fc e7 3e b0 5d 8b bd
       0.22951646 0.15892623 0.4530978 -0.06804979
000250 2e 53 97 bc a2 b1 98 3e 94 4c d2 bd 80 e5 c6 be
       -0.01847228 0.29823023 -0.10268512 -0.3884697
000260 22 95 db be be ce 19 bd ca 5e 30 3f 4b 55 8e bb
       -0.42887217 -0.03755068 0.68894637 -0.004343664
000270 4f 55 16 3f ab 5f 2c 3f 33 24 bb be 9a 46 c6 3e
       0.5872392 0.6733348 -0.36551055 0.3872574
000280 53 0c 11 3f b5 4a 38 3e d1 ea b4 3e fc ea bb 3d
       0.5665943 0.17997248 0.353354 0.09175679
000290 99 27 4d 3e 25 c3 20 bf 36 60 aa 3e 70 23 94 3e
       0.20034637 -0.62797767 0.33276528 0.28933287
0002a0 bc 61 ed be bd de 20 3f 39 56 92 bc b5 e2 0a 3f
       -0.46363628 0.6283987 -0.01786338 0.5425218
0002b0 57 df 0c 3f 7b 25 15 be 3c 80 73 be fc 47 fe bd
       0.5502829 -0.14565079 -0.23779386 -0.12416074
0002c0 30 78 89 be 20 19 02 bd 44 15 9a be 78 78 f1 3c
       -0.26849508 -0.031762242 -0.3009435 0.02947639
0002d0 47 c6 a7 bd a0 f6 06 3f 13 15 9d be 4a ec d2 3e
       -0.08192115 0.5272007 -0.3068014 0.411959
0002e0 4f 2c cb 3d f6 f3 9a be 6c b9 f0 bd 2f a7 b7 be
       0.099205606 -0.30264252 -0.117541164 -0.35869738
0002f0 18 68 e2 be 49 09 23 3e b4 a3 a4 3e 26 8d e6 be
       -0.44220042 0.15921511 0.32156146 -0.45029563

conv1.nn.fc1.bias f4 [64]
000000 06 b0 9f be 77 9a 1e 3f 24 07 a1 3d c6 81 e0 3e
       -0.31188983 0.61954445 0.0786269 0.4384901
000010 3a 56 1b be 8c 61 7c bd b3 9e e7 3e 65 9b 1a 3f
       -0.15169612 -0.061616465 0.45238265 0.60393363
000020 33 8f 94 be c6 b7 3f be b4 0b 43 be f1 30 e6 3e
       -0.29015502 -0.18722448 -0.19047433 0.44959214
000030 fa 3c 7f be 16 03 8d 3e 48 c5 47 bd 65 c9 9a 3e
       -0.24925604 0.27541417 -0.048772126 0.30231777
000040 7c 51 f3 be fa 59 12 3f d4 8e 86 bd c4 b2 63 3d
       -0.47523105 0.57168543 -0.06570211 0.055590406
000050 9e e8 12 bf 61 23 ce be 41 cf d0 3d e7 b6 d3 3e
       -0.57386196 -0.40261367 0.101957805 0.4135048
000060 11 0d 08 3f 23 d4 33 3d 0c 9d 35 3f 1a d4 11 3f
       0.5314494 0.04390348 0.7094276 0.56964266
000070 cc 70 c8 be 50 c0 cc 3e 26 5b bc 3e 40 aa 55 bc
       -0.39148557 0.39990473 0.3678829 -0.013041079
000080 b8 12 86 be 64 c6 04 3f e8 d6 51 be e2 03 51 be
       -0.26186156 0.5186522 -0.20492136 -0.20411637
000090 d9 0d 8f bd 10 e3 c1 bd f2 8b a0 be 00 25 a1 3c
       -0.06985063 -0.09467137 -0.3135677 0.019670963
0000a0 96 90 48 be ee db 0f 3e ac 66 38 3e 8a 58 d0 3e
       -0.19586405 0.1404874 0.18007916 0.4069255
0000b0 6c b8 e4 3e 13 c8 14 3f 07 57 3a be 57 29 10 3c
       0.44671953 0.5811779 -0.18197261 0.008798919
0000c0 51 d5 8b 3e 87 d0 f9 be 23 c9 a9 be aa f1 1a be
       0.27311185 -0.48791906 -0.33161268 -0.1513125
0000d0 07 55 19 3f e7 c1 9d 3e 66 a9 bf be 54 c1 20 3f
       0.59895366 0.30811998 -0.37433928 0.62794995
0000e0 ba d4 b9 bd aa 5a 89 3e 88 00 ac be 15 bb 16 3f
       -0.090737775 0.26826984 -0.33594155 0.58879215
0000f0 dc 1f 9e 3d 19 bc d1 be 88 da 8b 3d 94 74 e2 3e
       0.077209204 -0.4096382 0.06828791 0.44229567

conv1.nn.fc2.weight f4 [32, 64]
000000 e4 25 5b 3d ea 70 9f bd 70 89 87 3d 00 b2 fd 3d
       0.053502932 -0.077852085 0.06618011 0.123874664
000010 68 1d 6a bd 94 bf b9 bd 33 3f a5 3d a4 35 df bb
       -0.05715695 -0.09069744 0.08068695 -0.0068118144
000020 fe f3 e0 bd 10 91 57 3c 1c 81 9f 3c 1e 5e b1 bb
       -0.10984038 0.013157144 0.019470744 -0.005412831
000030 b1 f5 91 3d 70 b2 6b bd fb 2f 5d bd 35 99 b2 3b
       0.0712694 -0.057543218 -0.054000836 0.0054503926
000040 9e 42 ae 3d 24 cc cc bd 38 5d d7 3d 38 83 89 3b
       0.085088 -0.09999874 0.10515827 0.0041965507
000050 56 71 21 3d bf 23 ac bd eb 57 a1 3d c4 5a 82 3d
       0.039414726 -0.084052555 0.07878097 0.063649684
000060 e3 b3 5f 3c 64 ec c6 bd 11 42 ad 3d 1c f6 f4 3d
       0.013653728 -0.09713057 0.08459867 0.11961004
000070 fe 04 ac 3d a2 d7 06 3c e0 c4 f8 3c a4 50 0c bd
       0.0839939 0.008230122 0.030367315 -0.034256592
000080 fc b0 ab bd 3a fd da 3b c8 76 bd 3c f4 be 85 3d
       -0.083833665 0.006683019 0.023127928 0.06530562
000090 2f 7a 22 3d b0 7a 99 bd 6a 3b b4 bd 48 d1 a3 3d
       0.039667305 -0.07494104 -0.08800395 0.079989016
0000a0 82 85 db bc a2 fe 92 bd f2 be e8 3d a8 1c f9 bc
       -0.02679706 -0.071774736 0.11364545 -0.030409172
0000b0 90 4a 98 3c 82 6d 14 3a 58 28 18 3d 7b c8 1d bd
       0.018590242 0.000566207 0.03714785 -0.03852127
0000c0 07 6c ce 3c 7a 05 03 be d4 0b 4d 3d 4c 08 bf bd
       0.025197996 -0.12795058 0.05006011 -0.093277544
0000d0 c7 eb 8e bd a9 a0 b4 3d 15 ae 68 3d ed 3e fb 3b
       -0.06978565 0.08819706 0.056806643 0.0076674134
0000e0 18 c0 48 bd a4 3c e3 bd 70 2e 3a bc 6c d6 8d bd
       -0.04901132 -0.11095551 -0.011363611 -0.06925663
0000f0 b8 d5 7e 3d 84 f2 e6 bd 50 de 62 bd da e0 9d 3d
       0.062215537 -0.11276725 -0.055387795 0.07708903
000100 d6 e7 de 3b 64 27 df 3d 07 fd 54 3e ab 91 af 3d
       0.0068025393 0.10896185 0.20799647 0.08572706
000110 91 30 54 3e a3 14 a2 bd 62 61 2d 3e 55 c7 a3 bd
       0.20721652 -0.079140924 0.1693168 -0.07997004
000120 c2 5d da bd 84 a7 8b bd 5f 53 9d 3c 50 36 da 3d
       -0.10662414 -0.068190604 0.019204793 0.106548905
000130 17 9c dc 3c a3 86 ae bc a1 0d 23 3d ce d2 0a 3e
       0.026929898 -0.021304434 0.03980792 0.13556978
000140 8b a4 31 3e 9f 56 5e 3e 3d e4 07 3e a3 1b c0 3c
       0.17347924 0.21712731 0.1327066 0.023450678
000150 70 92 aa 3d a7 a8 57 3d 7a c7 f4 3d 23 a7 dc 3c
       0.08328712 0.052651074 0.1195211 0.026935166
000160 96 ad 47 3e 0a c4 11 3e 24 6c 64 be 7a d9 a4 bd
       0.19499812 0.14234939 -0.22306877 -0.08049293
000170 a4 c1 96 3d 0e af 68 bd 08 66 6e 3e 16 33 81 bd
       0.07361153 -0.05680757 0.2328111 -0.06308572
000180 dd e4 48 3e 87 cd 72 3e e8 ac 12 3d 76 58 dc bd
       0.19618554 0.23711215 0.035809427 -0.1075906
000190 eb 76 2a bc 30 a5 99 3c 6e b4 03 bc 30 61 3e 3d
       -0.010404329 0.018755525 -0.008038623 0.046479404
0001a0 38 57 25 3e 27 9f 62 3e 00 2f 10 3d 7f 1b 84 3e
       0.16146553 0.22131024 0.035201073 0.25802228
0001b0 12 e8 c8 3d e0 ba 0b 3e 0f 80 07 3e 87 95 b7 3d
       0.09809889 0.13645506 0.13232444 0.08964067
0001c0 ec 29 24 bd 15 4d 00 3e e8 8b cf 3d b9 30 24 3e
       -0.040079042 0.12529404 0.10134107 0.16034211
0001d0 37 3e 41 3d bd d2 b7 bc 7c 7c af 3c 26 91 62 3e
       0.047178473 -0.022439355 0.021421663 0.22125682
0001e0 08 57 79 3e 11 e1 35 3e 9a d7 86 bd da 7a 44 bc
       0.24349606 0.17761637 -0.065840915 -0.011992181
0001f0 18 8b 89 3e 03 9e 44 3d c8 9c 8f 3d bd 82 03 3e
       0.26863933 0.048002254 0.070123255 0.12842841
000200 3d 6a 3c 3e 0b d9 70 3d e7 db 64 3e 5e f2 e4 3d
       0.18399902 0.05880074 0.22349511 0.1117904
000210 b7 fd 42 3e 1d d5 81 3d f5 ea 8b 3e 14 51 02 3e
       0.19042097 0.06339476 0.27327695 0.12726241
000220 b4 c8 0b 3d 00 4b 31 bc 73 1a ca 3c 27 d0 2f 3e
       0.034126952 -0.010821104 0.024670815 0.17169248
000230 75 fb d9 3c a3 ca 5c 3d 02 1c 20 3e e2 0a 60 3e
       0.026609162 0.053904187 0.15635684 0.21879151
000240 49 3d 0f 3e 08 fc 05 3e a6 9e b5 3b 7c d8 ed 3d
       0.13988222 0.13084424 0.005542594 0.11613557
000250 8a 1e 98 bd 19 e3 0e 3e 36 cd 01 3e 07 f7 2c 3e
       -0.074277 0.13953818 0.12675938 0.16891108
000260 9c 48 b7 3d 83 ce 9c bc 36 de 98 be 2e 90 bf bd
       0.08949396 -0.019141441 -0.29857033 -0.09353672
000270 fa cc a9 bd a0 70 49 bb ff 10 2a 3e 04 d4 88 bd
       -0.08291049 -0.0030737296 0.16608046 -0.06681064
000280 f9 1f c9 3b 5c f2 3b 3e 60 2d bd 3b e0 43 ba 3d
       0.0061378446 0.18354172 0.0057732314 0.090949774
000290 68 52 d9 3c 82 95 22 3d 77 4f e7 3d 8c ba 29 bd
       0.026528552 0.039693363 0.112944536 -0.04143767
0002a0 98 03 09 3d 3b 6e 3f 3e ac 66 b8 bd a8 e0 45 3d
       0.033450693 0.18694393 -0.09003958 0.048309952
0002b0 44 49 d3 bc 19 38 aa 3d 3b 66 2b 3e e8 66 67 3c
       -0.025791772 0.08311481 0.16738217 0.014123656
0002c0 2d ff 84 3d 50 29 85 bd 80 0f e5 3b 49 e6 22 3e
       0.064939834 -0.0650202 0.006990373 0.1590816
0002d0 12 54 26 3e e1 82 17 3e 95 bb c2 3b dd 51 8c 3e
       0.16243008 0.1479602 0.0059427717 0.27406207
0002e0 25 e1 60 3e 30 02 ea 3d f8 0c 3a bd fe 3b b9 bd
       0.21960886 0.114261985 -0.045422524 -0.09044646
0002f0 81 da cc 3d e9 5f 20 3e 94 c7 69 bd d7 64 a1 3d
       0.10002614 0.15661587 -0.0570751 0.07880562
000300 51 61 ed 3d 12 8d 45 bd 69 f1 6d 3e b4 0d 3c 3d
       0.11590827 -0.04823024 0.23236622 0.045911506
000310 6e 7d ee 3c 09 ee d5 3d 9e 19 1c 3c 09 a5 da bd
       0.029112544 0.10445792 0.009527592 -0.10676009
000320 66 93 c5 3d 12 e7 c1 bd 11 c1 aa 3d 06 72 c2 3d
       0.09647255 -0.09467901 0.08337606 0.094944045
000330 85 cb 22 3e 9a d1 d5 3d 28 4d 00 3e d7 21 a0 3d
       0.15897949 0.10440369 0.12529433 0.078189544
000340 35 4d 95 3d e6 29 62 3e cc 52 cd 3d d5 30 2c 3e
       0.07290117 0.22086295 0.10025558 0.16815503
000350 3e b9 95 bc b9 e3 e0 3c 8a 2b 82 bd 62 c6 19 3e
       -0.018276807 0.027452337 -0.06355961 0.15017083
000360 76 b2 a1 3d 31 a0 3b 3d 1a 94 76 be 58 a4 f6 3d
       0.07895367 0.045807067 -0.24079934 0.12043065
000370 ac 58 1f bd a3 64 4c bd f3 07 a0 3d 18 d5 d3 bd
       -0.038902923 -0.049900662 0.07814016 -0.10343379
000380 cd 06 53 3e 32 6a 85 3e d2 bf fa 3d 20 e2 6d 3c
       0.20608063 0.26057583 0.12243618 0.014519244
000390 51 a3 87 3d ce 17 93 bd 14 be 18 3e 58 27 1b 3d
       0.06622947 -0.07182275 0.14916259 0.037879318
0003a0 22 91 89 3d 5b f5 8b 3d 9c aa 21 3d 59 04 4c 3e
       0.06717135 0.06833907 0.039469346 0.19923533
0003b0 e0 9b ba bc 3b 40 02 3e 78 81 c2 3d c9 39 9d 3d
       -0.022779405 0.12719814 0.094973505 0.07677037
0003c0 36 8e 93 3d 5f e7 70 bd 02 20 e2 3d d8 71 83 3e
       0.07204859 -0.058814403 0.11041261 0.25672793
0003d0 57 91 2e 3e f4 f0 d9 3d 5c 3d a2 3d c5 f8 2e 3e
       0.1704763 0.10641661 0.079218596 0.17087086
0003e0 76 d3 f4 3d 1b 49 65 3c 0e 9b f8 bd 2c ae 80 bc
       0.119543955 0.0139944805 -0.12138949 -0.015708052
0003f0 8d db 80 3e 7a 11 2c 3e a0 bd 80 3d da c0 74 3d
       0.25167504 0.16803542 0.06286168 0.05975423

conv1.nn.fc2.bias f4 [32]
000000 c5 3e 90 bd 5f 15 26 3e 9e 75 37 3e bc 32 b0 bc
       -0.07043222 0.1621909 0.17915961 -0.021508567
000010 de 1b 99 3d a0 0e 95 3b 22 bb 24 3e 19 df 87 3d
       0.07476018 0.0045488626 0.1608701 0.066343494
000020 d5 37 dc bd 23 60 82 3d e0 7f b4 bd 12 4a cb bc
       -0.107528366 0.06365993 -0.08813453 -0.024815593
000030 5f c5 12 3e 15 20 2e 3e 53 ae b6 3d 60 0c 99 3c
       0.14333104 0.17004426 0.089199685 0.018682659
000040 6b 65 ca 3a f9 2a 52 3e 38 4a 74 3d c8 b9 2b 3d
       0.0015441602 0.20524205 0.059641093 0.04192522
000050 90 e8 08 be 65 1b cb 3d 68 34 e9 3c 32 8c 05 bd
       -0.13369966 0.099173345 0.028467372 -0.032604404
000060 05 36 92 3d 9e 32 47 bd 98 4b 7b 3c 40 7a 4d 3d
       0.0713921 -0.048632257 0.015337847 0.050165415
000070 00 3f c1 bd d3 83 85 3e 00 3b 7e bc 56 12 b5 3d
       -0.094358444 0.26077136 -0.015516996 0.08841388

conv2.nn.fc1.weight f4 [16, 32]
000000 6f f6 2b 3d a2 a6 f4 3c 32 79 d6 bd 1d bc d0 3d
       0.041983064 0.029864613 -0.10472335 0.1019213
000010 48 c3 9d 3d 2c 5c 34 3d f4 27 a1 bc 94 e0 7e bd
       0.077032626 0.044033214 -0.019672371 -0.062225893
000020 3e c4 11 be 40 a1 56 bd c0 8a 02 be aa 85 b3 bd
       -0.14235017 -0.052399874 -0.12748241 -0.08765729
000030 bf 3e 08 3c d0 e1 cc bd 8b b1 52 bd b2 7c f8 bd
       0.008315741 -0.10004008 -0.05143885 -0.12133159
000040 fb a7 a1 3b bc db 86 3d 7e 7d bc 3c ac 7a 10 be
       0.004933355 0.0658488 0.023009058 -0.14109296
000050 54 7d 09 3e 86 b6 d9 3c b4 c0 d1 bd a3 32 92 3c
       0.13426715 0.026576292 -0.10241833 0.017846411
000060 03 de fc bc 73 76 93 bd 30 c4 ed 3d 77 05 e8 3d
       -0.030867582 -0.07200327 0.116096854 0.11329167
000070 fd 23 34 be 63 20 65 bd 8b 0a 57 3d f1 a1 6c 3c
       -0.17591853 -0.05593909 0.05250029 0.014442907
000080 fd 63 28 3e 5e 06 b4 3d 13 d9 0b be 40 93 2e 3b
       0.16444393 0.08790277 -0.13657026 0.002663806
000090 a9 fe bb bd 98 fb 83 bc 14 5e 86 3d 64 59 50 bd
       -0.09179432 -0.01611118 0.06560913 -0.0508665
0000a0 c0 25 78 bc 56 03 d7 bd d9 75 1a be 88 18 7c 3d
       -0.015145719 -0.10498683 -0.15084018 0.061546832
0000b0 60 35 82 bb 04 94 2c bd 66 7f 34 be 50 cf a5 bc
       -0.003973648 -0.042133346 -0.17626724 -0.020240456
0000c0 c6 4e 1d be 00 f3 7a bb e0 42 b9 3b 53 5b 9c bd
       -0.15362081 -0.0038291812 0.005653724 -0.07634606
0000d0 68 04 91 3d 5b 4f 23 3e 60 fa 1f 3c 4f 9b 34 be
       0.070809186 0.1594824 0.009764284 -0.1763737
0000e0 e0 c1 d1 bc 29 7d 19 be 0b 31 31 be 24 02 31 be
       -0.025605142 -0.14989151 -0.17303865 -0.17285973
0000f0 a0 fa 5f bd 3b 0e 08 3e 67 6a 14 3e d6 9c 8e 3d
       -0.054682374 0.13286678 0.14493714 0.06963508
000100 a4 a3 31 3e 68 00 01 3d ab a3 62 3d bb 9d 36 3e
       0.1734758 0.031494528 0.055331867 0.17833607
000110 88 6b 97 bb 4c 84 d6 bd 09 87 a4 3c f6 65 95 3c
       -0.004620973 -0.104744524 0.020083921 0.018237095
000120 ea 80 ca bb 74 72 4d 3e 1a ad 06 3e bb 18 50 3d
       -0.0061799185 0.20063192 0.1315197 0.050804835
000130 a5 24 f2 3d 77 ab b3 3d 34 7c bc bc de 44 f5 3d
       0.11823396 0.08772939 -0.023008443 0.11976026
000140 d5 d6 ac 3d 67 42 01 3e 66 24 02 3e 53 a3 0d 3c
       0.084394135 0.12622987 0.12709197 0.008644897
000150 fa 78 40 3e 56 93 60 3e da 66 21 bd 38 27 a8 3d
       0.18796149 0.21931204 -0.039404728 0.082106054
000160 48 f6 b2 bd cd 76 0d 3c a8 c2 56 3e 64 78 5a 3e
       -0.08738381 0.008634281 0.20972693 0.21334988
000170 0b d4 fc 3b d9 4a 94 3d c4 ab 27 bc 6d 34 1c 3e
       0.007715707 0.072408386 -0.010233823 0.15254374
000180 f7 9e 2c be ac 0f b2 bd b6 3b 0f bd 2a 84 e5 bd
       -0.16857515 -0.086943954 -0.034969054 -0.11206849
000190 49 b8 a8 bc 2a f6 56 bd 6e 01 12 3e 85 46 8d bd
       -0.020595687 -0.052480854 0.14258358 -0.06898216
0001a0 30 ab cb 3c b0 29 1f be 95 41 65 3d 0e 2e f4 3d
       0.024861902 -0.15543246 0.055970747 0.11922847
0001b0 b6 e2 0f bc df 5d 98 3d 39 44 88 bd 55 8f 9c bd
       -0.008782079 0.074397795 -0.066536374 -0.07644526
0001c0 60 52 6c bc 5d 10 c1 3c 53 44 fb bd 9e 01 dc bd
       -0.014423937 0.023567373 -0.12268891 -0.10742496
0001d0 8c f7 20 be 77 e8 68 bc 09 a0 81 bd d1 7c 16 be
       -0.15719432 -0.01421558 -0.063293524 -0.14696051
0001e0 18 ed 2a 3e 01 a6 a8 bd d1 58 d2 3d 27 a4 21 be
       0.16692007 -0.08234788 0.10270847 -0.15785275
0001f0 1c 7a 38 bd 51 10 ed bd 73 e2 da 3d fc 4c 79 3c
       -0.045038328 -0.11575378 0.10687723 0.015216108
000200 fc 0e 52 3d d0 5d dd 3d b9 46 79 3c 56 43 d2 3d
       0.05128382 0.10808909 0.0152146155 0.102667496
000210 9c d7 a3 bd ff 6c 31 3e 23 98 39 be c8 2b 5e bc
       -0.080001086 0.17326735 -0.18124442 -0.013560243
000220 55 5d 5e 3d 26 23 7e bd cc 09 c2 3d dc e2 19 bd
       0.054288227 -0.06204524 0.09474525 -0.037569866
000230 99 30 3c be a0 8e 84 3d 1a 6e 35 bc e1 af c4 bd
       -0.18377914 0.06472516 -0.011073614 -0.09603859
000240 56 2a 80 3d d0 f2 db bc e7 e9 16 3e 2d eb e6 bd
       0.06258075 -0.02684918 0.14737664 -0.11275325
000250 4d c9 51 3d 7e 0a 17 3e cc 9e fb bd 05 bd 09 bd
       0.051217366 0.14750096 -0.122861475 -0.03362753
000260 12 4f 1c be 9f 11 9c 3a f3 c6 82 3c b7 0d 62 bd
       -0.15264538 0.0011907107 0.015964007 -0.05518886
000270 c5 da 29 be 9e de 20 be df 4a 8a bd ff b2 28 be
       -0.1658736 -0.15709922 -0.06752562 -0.16474532
000280 8c 4b af bd 60 61 b0 3b c8 d6 ce 3d 14 d6 be 3d
       -0.08559331 0.0053827018 0.1009956 0.09318176
000290 20 85 b8 3d c7 16 cf bd 3c bb 04 3e a8 10 d3 bd
       0.090097666 -0.10111766 0.12962049 -0.10305911
0002a0 4c c4 94 3d c2 89 1c be fb 86 1e 3e 70 df dc 3c
       0.07264003 -0.15286925 0.15481178 0.026962012
0002b0 43 0a 4a bd 84 89 19 3c 9c 09 2a bc 9c ab 02 be
       -0.049326193 0.009371165 -0.010378268 -0.12760776
0002c0 2e e6 be 3c 31 d4 c3 bd 90 63 a6 3d 29 86 0a be
       0.023303118 -0.09561957 0.08124459 -0.1352774
0002d0 94 8d 9c 3d 73 d2 9e bc 6a a8 19 be 48 d6 f5 bd
       0.076441914 -0.01938746 -0.15005651 -0.120037615
0002e0 cf c7 14 be bc 75 e9 bd 8b 87 20 3e e7 39 01 be
       -0.14529346 -0.11399409 0.15676706 -0.12619744
0002f0 2a 50 ce 3d e2 b3 b0 bd bb 61 da bd 41 61 ee 3c
       0.10073884 -0.0862806 -0.10663172 0.029099109
000300 6e 3b 2b bd 65 f8 9b bc f0 7e 85 3e f1 c9 f1 3c
       -0.041804723 -0.019039342 0.26073408 0.029515238
000310 6d 0d bc 3d e0 40 38 3c 57 5b 2a 3e aa bc 03 3e
       0.09182248 0.011245936 0.16636406 0.12864938
000320 e2 2e bd bd e6 e3 37 3e 05 c1 8d 3d 8e bb 2d 3e
       -0.09237458 0.1795803 0.06921581 0.16966078
000330 48 ea c3 3d 95 cc 6a 3e a9 8c 7e 3e e4 68 18 bd
       0.0956617 0.22929604 0.24858345 -0.037209406
000340 04 a3 68 3d cd 61 8e be 45 57 d4 3d d1 00 a1 3d
       0.05679609 -0.2780899 0.10368208 0.07861484
000350 ba d7 53 bd 7a 94 93 bd 79 e7 d0 3d d3 79 09 3e
       -0.051719405 -0.07206054 0.102004 0.13425379
000360 65 46 f7 3d 99 fd 6f 3e 8f b6 8c 3e 24 0c 7e 3e
       0.120739736 0.23436584 0.2748303 0.24809319
000370 38 c7 e9 3d b1 6e 3e be 5d 18 a4 3e dd de 2e 3e
       0.11414951 -0.18596913 0.32049838 0.17077203
000380 0f 47 70 bd 88 6a 7b 3e f4 89 80 3d c2 f3 72 3e
       -0.058661517 0.24552357 0.062763125 0.23725799
000390 64 ec d8 3d de 57 a2 bd 2c 8f 27 3e 64 be 95 3e
       0.10591963 -0.079269156 0.1636321 0.2924682
0003a0 13 77 e9 bc 59 6e ea 3d 00 71 38 3d 88 c2 fb 3d
       -0.028499162 0.114468284 0.04502964 0.12292963
0003b0 d3 56 5e 3e d9 0f 80 3e 68 f2 47 3e c9 0e 33 3e
       0.21712808 0.2501209 0.19526064 0.17486109
0003c0 8e fc 9c bd 95 5e d7 be 95 0a a7 3d 0d 4e 5e bb
       -0.076653585 -0.42064348 0.08156315 -0.0033921034
0003d0 04 21 26 3e 2e 9e b4 be 2c 3d 88 3d 11 d7 54 3e
       0.16223532 -0.35276932 0.066522926 0.20785166
0003e0 67 bb 90 bd 97 37 07 3e f6 82 42 3d ee 96 7b 3e
       -0.07066994 0.132048 0.047488175 0.24569294
0003f0 0a 8a 09 be 36 40 7c be 2b c0 a1 3b ae 0b 0d 3e
       -0.13431564 -0.2463387 0.0049362383 0.13773987

conv2.nn.fc1.bias f4 [16]
000000 12 27 f9 bc 60 00 17 bc 84 c6 e9 3c 24 46 fb 3d
       -0.030414138 -0.009216398 0.028537042 0.12269238
000010 ad ad a0 3d f2 6a e6 bd 3d 2f b7 bd ae f1 b6 3d
       0.07845626 -0.11250867 -0.08944557 0.089328155
000020 c2 7b 99 bd 54 0e f6 ba fa ed d9 bd 1f 35 97 3e
       -0.07494308 -0.0018772581 -0.106410936 0.29532716
000030 fd 20 0e 3d c4 26 19 be 14 ed 33 be 1a 89 49 3e
       0.03469943 -0.14956194 -0.17570907 0.19681206

conv2.nn.fc2.weight f4 [6, 16]
000000 f3 cf d4 3d 08 4b dc bd f4 0a 76 3e ab f7 58 3e
       0.10391226 -0.107564986 0.24027616 0.21188228
000010 2f af 6a bd 0c a2 42 3e 15 44 61 be b8 35 2b be
       -0.057295974 0.19007128 -0.21998627 -0.16719711
000020 cd 78 44 3e 04 2c 37 be 2e 78 ac be f5 72 50 3e
       0.19186707 -0.17887884 -0.3368544 0.20356353
000030 b0 82 16 3c ef b8 01 be 20 ad 29 3d 3f 22 41 3e
       0.009186432 -0.12668203 0.04142487 0.1886072
000040 19 51 be 3d 92 3e 75 be 15 0d 2c bd 2e 92 49 be
       0.09292812 -0.2394965 -0.042004663 -0.1968467
000050 63 16 4c be a7 7b d2 3d 6b 23 94 bd 63 8a 22 be
       -0.19930415 0.10277491 -0.07233318 -0.15873103
000060 06 d0 1e be 98 6f 1b 3d f8 b7 2a 3e 14 fe a6 3e
       -0.15509042 0.03794822 0.16671741 0.3261572
000070 77 d9 e1 bd e8 cd 77 be c4 84 18 be 52 cb 62 bc
       -0.11027806 -0.24199641 -0.14894396 -0.013842421
000080 0e 66 24 be 88 6a 38 3d b2 ec c0 be e6 8f 28 be
       -0.16054556 0.04502347 -0.37680584 -0.16461143
000090 05 71 7b bd ef 2c fc 3d b6 55 20 be 01 11 05 be
       -0.06138708 0.12313258 -0.15657696 -0.12994768
0000a0 b9 0c ab bd 38 4a c4 be 5b ae 43 3d 8d 06 af 3e
       -0.08352036 -0.38337874 0.0477737 0.34184685
0000b0 22 d8 1d be fe 3a a9 bd 3c 74 6f be 73 80 e9 3d
       -0.1541448 -0.08263205 -0.23384184 0.11401453
0000c0 9e 49 d2 3d 30 02 04 3e 48 5c 83 be 3a 79 cd bd
       0.102679476 0.1289146 -0.25656343 -0.10032888
0000d0 e9 0c 21 3e a6 79 3e be e3 60 9d be 66 6f f7 bd
       0.15727581 -0.18601093 -0.3073798 -0.120817944
0000e0 12 0b d8 bc 98 22 a4 bd ea c2 65 be bd a9 28 3e
       -0.026372466 -0.08014411 -0.22437635 0.16471
0000f0 58 21 e0 3d 27 5c d4 bd 58 0a 36 bd 34 fa 49 be
       0.1094386 -0.10369139 -0.04444346 -0.19724351
000100 4c e3 ac bd 60 66 7e bc da 43 81 be ac ee 38 3e
       -0.08441791 -0.015527338 -0.2524708 0.18059796
000110 18 8a 59 3e 73 45 4a be 26 26 8a bd 57 35 b0 3c
       0.21244085 -0.19753055 -0.067455575 0.02150981
000120 54 1c 70 3e 7d e9 14 be da 1e 8d be a4 50 19 3e
       0.23448306 -0.14542194 -0.275626 0.14972168
000130 93 41 c3 3d 1b 8c a7 be ee 40 21 be 56 d1 0d bc
       0.09533992 -0.3272408 -0.15747425 -0.008655867
000140 1e 14 27 3e 00 9a ff bc b6 46 4f be e3 cf 0d bd
       0.16316268 -0.031201363 -0.20241818 -0.034622084
000150 3d ab 83 bd 8b 0d 1b 3e 89 ee c9 3c 43 3d d9 be
       -0.064291455 0.15141885 0.024649875 -0.4242955
000160 bf 5f 68 3e b3 06 96 bd a9 b5 89 bc 0b 35 49 3e
       0.22692774 -0.073254965 -0.016810255 0.1964914
000170 bb 4d 28 3e 0d 2d 28 be bc a3 30 3e 70 2a db be
       0.16435902 -0.16423436 0.1724996 -0.42805815

conv2.nn.fc2.bias f4 [6]
000000 58 d2 24 be 40 f0 cb 3d bf 78 81 bd f2 d2 bf 3c
       -0.16095865 0.099579334 -0.063218586 0.023416016
000010 6d 70 76 bd 18 cf 6c 3d
       -0.06016581 0.057814687
