results/GIN_2/checkpoint.pt (torch, 4592 bytes, 4 tensors)

conv1.nn.fc1.weight f4 [64, 3]
0.12837389 -0.53124744 0.24276046 -0.2524648 -0.5005791 -0.031273305 0.20695665 0.49607491
-0.24052945 0.713609 0.2404414 -0.16028437 -0.13020752 -0.50723284 -0.3820147 0.054205943
-0.43279642 0.3865502 -0.2070349 -0.5567215 -0.22570868 -0.33371687 -0.52459687 -0.12395248
-0.35035264 -0.24080682 0.2266499 0.2954281 0.32333422 0.15457322 -0.35036764 -0.55477136
0.45181996 -0.0077166343 -0.7633594 0.1451937 0.6830045 -0.30579746 0.23440824 -0.1709874
-0.46831813 0.25199342 -0.20513447 0.74369633 -0.37965792 0.572644 0.4608246 -0.014242915
0.32739156 0.48940292 -0.11948349 -0.040001392 -0.454789 -0.49185616 0.30502534 0.4056119
0.32625544 -0.36480746 -0.47195387 0.4003811 -0.5742813 -0.15279442 -0.5243962 -0.10597634
-0.36830878 0.30543187 0.52951103 0.57825667 -0.050713606 0.062148456 0.67565507 0.4264626
-0.18674558 -0.06869069 0.025404742 0.029334603 -0.62270904 -0.03751281 0.38217083 0.23559047
0.06887279 -0.20733272 -0.6235536 -0.48335767 0.29060498 0.6781452 0.43804672 -0.28346926
-0.77774006 0.39671856 -0.32235208 -0.13719739 0.3885328 -0.08841041 -0.20109762 0.3725798
0.76908314 -0.06292912 0.22499347 -0.14798959 0.38754275 -0.46917212 0.17718104 -0.7359801
0.010572364 -0.2718725 -0.09756711 -0.14112774 0.19669044 0.48477066 0.4850335 -0.15897267
-0.71841353 -0.08984321 0.68533003 0.020443078 -0.054941338 0.5002095 0.5190995 -0.25808942
-0.09603649 0.49325207 0.39607176 0.109028414 0.44990993 0.35529912 0.5273416 -0.33774504
-0.23634537 -0.1155072 0.5382343 0.036242288 -0.15363365 -0.5281038 0.48363256 -0.49799296
0.7942004 0.16985284 -0.0033026338 -0.16229236 -0.21021968 0.57852155 0.20851195 -0.229991
-0.16040695 0.5556383 0.31893364 -0.083448544 -0.32921326 0.5216816 -0.26325566 -0.50132734
-0.2923012 0.32023126 0.6177241 0.041152664 0.30923536 0.6700226 -0.1873553 -0.3754485
0.06735094 0.13844962 0.4144995 0.46000707 -0.2664515 0.009371376 0.6516428 -0.52559984
0.74046725 0.5820986 0.31910384 -0.15704703 -0.37100333 0.07703298 0.090766154 0.43821588
-0.09122341 0.5610828 0.63458484 0.1814981 -0.3633878 -0.50629944 0.4431783 -0.31716257
-0.543957 -0.45058632 -0.4936307 -0.54559404 -0.4017017 0.2816221 0.66297644 0.4142485
00000000: 7274 033e d5ff 07bf 3396 783e 1143 81be
00000010: f425 00bf 7018 00bd 72ec 533e 88fd fd3e
00000020: 5a4d 76be 14af 363f 4536 763e 9621 24be
00000030: 1f55 05be 03da 01bf 6e97 c3be 0d07 5e3d
00000040: 7e97 ddbe e8e9 c53e f500 54be 4d85 0ebf
00000050: 2d20 67be f0dc aabe fb4b 06bf ccda fdbd
00000060: 6c61 b3be 1096 76be e916 683e 5a42 973e
00000070: 108c a53e 7148 1e3e 6363 b3be 7f05 0ebf
00000080: f254 e73e d2db fcbb 866b 43bf a8ad 143e
00000090: 62d9 2e3f 7c91 9cbe b708 703e 5217 2fbe
000000a0: 65c7 efbe 4805 813e c50e 52be e262 3e3f
000000b0: 8662 c2be cc98 123f 34f1 eb3e 1e5b 69bc
000000c0: de9f a73e 0593 fa3e c3b3 f4bd 80d8 23bd
000000d0: 1bda e8be 92d4 fbbe 482c 9c3e 5dac cf3e
000000e0: f40a a73e 0bc8 babe f0a3 f1be c0fe cc3e
000000f0: 1904 13bf 2476 1cbe d43e 06bf 200a d9bd
00000100: f892 bcbe 9161 9c3e 098e 073f a108 143f
00000110: 12b9 4fbd 618f 7e3d bbf7 2c3f 4e59 da3e
00000120: 3c3a 3fbe b4ad 8cbd 9b1d d03c 1f4f f03c
00000130: dc69 1fbf 08a7 19bd e5ab c33e a13e 713e
00000140: 2d0d 8d3d 074f 54be 35a1 1fbf a87a f7be
00000150: 2dca 943e ec9a 2d3f a947 e03e e222 91be
00000160: f919 47bf b21e cb3e 550b a5be 797d 0cbe
00000170: c5ed c63e 8410 b5bd 89ec 4dbe c8c2 be3e
00000180: a2e2 443f fce0 80bd b064 663e 958a 17be
00000190: 016c c63e 5437 f0be f26e 353e 3169 3cbf
000001a0: b537 2d3c df32 8bbe 44d1 c7bd ca83 10be
000001b0: 3869 493e dc33 f83e 5056 f83e bbc9 22be
000001c0: f3e9 37bf b8ff b7bd ca71 2f3f 3e78 a73c
000001d0: 2b0a 61bd bb0d 003f b4e3 043f 4c24 84be
000001e0: c7ae c4bd 898b fc3e ebc9 ca3e 4a4a df3d
000001f0: 985a e63e c4e9 b53e dcff 063f ebec acbe
00000200: 8504 72be 0a8f ecbd b9c9 093f cb72 143d
00000210: 2452 1dbe d031 07bf b09e f73e eff8 febe
00000220: b850 4b3f e7ed 2d3e 0071 58bb f82f 26be
00000230: d443 57be fd19 143f 2884 553e c382 6bbe
00000240: b841 24be 503e 0e3f 454b a33e 12e7 aabd
00000250: a48e a8be ed8c 053f 72c9 86be fd56 00bf
00000260: 81a8 95be 5af5 a33e 2b23 1e3f b28f 283d
00000270: 1954 9e3e 9a86 2b3f 11da 3fbe c93a c0be
00000280: 4aef 893d bdc5 0d3e 4739 d43e 0c86 eb3e
00000290: 556c 88be 668a 193c 10d2 263f b68d 06bf
000002a0: 438f 3d3f 6a04 153f 9461 a33e f0d0 20be
000002b0: 26f4 bdbe 78c3 9d3d 9be3 b93d d55d e03e
000002c0: 57d3 babd 1fa3 0f3f 2774 223f a3da 393e
000002d0: f70d babe d79c 01bf 44e8 e23e 2263 a2be
000002e0: c440 0bbf 40b3 e6be 2abd fcbe 0dac 0bbf
000002f0: d8ab cdbe c630 903e d3b8 293f 6118 d43e

conv1.nn.fc1.bias f4 [64]
0.53216255 -0.3191554 -0.11287739 -0.08463208 0.5069994 0.19689646 0.7708321 -0.1216363
0.21960166 -0.00971049 -0.5175111 0.7634235 -0.6518003 -0.013221085 0.20492923 0.19449654
-0.12566026 -0.10260934 -0.073142506 -0.39096045 0.10244942 -0.5353321 -0.27428216 -0.12813039
-0.04778844 0.56554765 0.47083735 0.62296146 -0.071706206 0.7789809 0.64336485 0.28691125
0.23500751 -0.47152343 0.7363661 -0.37969834 0.4323036 0.72973657 -0.29994613 -0.20916621
0.098635234 0.5314569 -0.46931195 0.0580939 0.6127165 0.49527565 -0.46376908 -0.57796043
0.1562185 -0.5183641 0.8044099 -0.15791008 0.31104842 -0.17235102 -0.3125713 -0.21838032
-0.15440412 -0.43132138 0.3775044 0.045314502 -0.36799625 -0.3466462 0.047984242 0.2953704
00000000: ce3b 083f 5668 a3be 432c e7bd 9553 adbd
00000010: b6ca 013f 3a9f 493e 4155 453f 741c f9bd
00000020: 42df 603e bf18 1fbc 9c7b 04bf b96f 433f
00000030: 62dc 26bf 409d 58bc f8d8 513e 1a2a 473e
00000040: 15ad 00be d824 d2bd bdcb 95bd f82b c8be
00000050: 00d1 d13d 860b 09bf b66e 8cbe 9d34 03be
00000060: d0bd 43bd bbc7 103f 9811 f13e 677a 1f3f
00000070: b4da 92bd 4b6b 473f 8fb3 243f 08e6 923e
00000080: cfa5 703e 856b f1be 7d82 3c3f d267 c2be
00000090: e656 dd3e 04d0 3a3f 8a92 99be ab2f 56be
000000a0: 4501 ca3d 8f0d 083f a849 f0be dff3 6d3d
000000b0: fdda 1c3f c594 fd3e 2473 edbe 37f5 13bf
000000c0: bef7 1f3e 82b3 04bf cfed 4d3f 2eb3 21be
000000d0: bd41 9f3e c97c 30be 5809 a0be 179f 5fbe
000000e0: 1d1c 1ebe 28d6 dcbe 4248 c13e b39b 393d
000000f0: 016a bcbe 9c7b b1be 208b 443d ca3a 973e

conv1.nn.fc2.weight f4 [6, 64]
0.18547162 -0.098658085 -0.33509186 -0.23817778 0.20240296 0.023225514 0.08244325 -0.06543611
0.040036768 -0.2990167 0.08140186 0.13094328 -0.250878 -0.074645415 -0.23731858 -0.25187555
-0.06203621 -0.012105256 -0.23244256 0.011283152 0.06022662 -0.10929252 -0.20962562 -0.106297925
0.0990037 0.18382244 -0.18323746 0.23525846 -0.22737582 0.078589484 0.049146514 0.015549318
-0.060435627 0.013472489 0.09148728 0.11318028 -0.17459787 0.11581146 -0.06310285 -0.09110935
-0.30305016 -0.12113656 -0.1779225 -0.1114818 0.16897455 -0.20849897 -0.092984974 -0.21282476
-0.2668827 0.103765376 0.14135684 -0.10818734 -0.08584711 0.008049243 -0.301579 -0.29061306
-0.031552937 -0.003978029 -0.25520313 -0.25332874 -0.008548983 -0.12020928 -0.111698136 -0.07200848
0.064286426 0.11441627 -0.27857423 -0.1394374 0.116009675 -0.002426421 0.21180461 -0.06850763
0.020352557 -0.16027522 0.030547231 0.10365291 -0.24770729 0.00030651406 -0.22803475 -0.018902713
-0.20989871 0.10393396 -0.18945004 0.055420786 0.1222838 0.04849962 -0.2270849 -0.23293702
0.04334024 0.205472 -0.23838755 0.30931303 -0.19025137 0.21162365 -0.017454067 0.13700844
-0.15749344 -0.0016342876 0.18747252 0.11429949 -0.2496226 0.07025784 -0.15430091 -0.23511904
-0.21952876 -0.10545275 -0.122764714 -0.3343655 0.21929906 -0.086971074 -0.08755091 -0.1818323
-0.2582172 0.0033931406 0.26957542 -0.22637454 -0.14005893 0.003647156 -0.41171244 -0.17167586
-0.15276954 -0.041959524 -0.23017268 -0.13752975 0.00068594184 0.09672035 -0.09032677 -0.12262807
0.12140548 -0.1057491 -0.20003574 -0.22613105 0.3232549 0.03274816 0.16267474 -0.08673413
-0.07181229 -0.38283587 0.08231694 0.05942921 -0.3255883 0.06992528 -0.28135017 -0.3188575
-0.263141 0.03337179 -0.28228962 0.06809709 0.06593156 0.066208735 -0.13823989 -0.20004058
0.050542016 0.022194235 -0.19392756 0.4348831 -0.12891962 0.21599364 0.21262518 0.14063916
-0.2876501 0.043366235 0.12866719 0.070949376 -0.23454338 0.24708284 -0.09530039 -0.3211063
-0.13976555 -0.13252893 -0.17818463 -0.2693872 0.2916069 -0.28362706 -0.0049465746 -0.29173422
-0.23802505 -0.016687892 0.29386148 -0.3320034 -0.31949323 0.0056109596 -0.36238375 -0.09055331
-0.2742115 0.06835498 -0.18558879 -0.24884693 0.06259055 0.06281781 0.10554996 -0.3224081
0.071161486 0.04988067 -0.2957159 -0.12750156 0.24537915 0.023900963 0.28393516 0.09480263
-0.049536232 -0.32408324 -0.06417308 0.1955622 -0.23868199 -0.0051423763 -0.07768165 -0.13217103
-0.121990144 0.062463358 -0.18119754 -0.037069008 0.09808852 0.07263807 -0.18475641 -0.20952056
0.018002711 0.1884059 -0.2724505 0.43256083 -0.15095901 0.34611785 0.2384088 0.0530015
-0.2829024 -0.028272498 0.1324157 -0.07730931 -0.28955188 0.2724748 -0.29454827 -0.19265628
-0.16483803 -0.15375338 -0.3129144 -0.1795453 0.24214672 -0.18871042 0.073340654 -0.14867984
-0.2951352 -0.085380636 0.24470618 -0.22422582 -0.16227399 0.071495615 -0.43142593 -0.22312789
-0.33353913 0.09929414 -0.1462026 -0.120971784 0.032836165 -0.07190196 0.12163879 -0.30278376
00000000: 46ec 3d3e 400d cabd 2991 abbe e0e4 73be
00000010: b942 4f3e 6f43 be3c 02d8 a83d 5e03 86bd
00000020: 98fd 233d b818 99be 05b6 a63d ff15 063e
00000030: 1573 80be b2df 98bd a403 73be d5f5 80be
00000040: ae19 7ebd 2055 46bc 6c05 6ebe f8dc 383c
00000050: 30b0 763d c2d4 dfbd 19a8 56be bab2 d9bd
00000060: 74c2 ca3d f33b 3c3e 9aa2 3bbe 98e7 703e
00000070: 35d5 68be 86f3 a03d db4d 493d 91c2 7e3c
00000080: 598b 77bd b7bb 5c3c af5d bb3d 10cb e73d
00000090: c9c9 32be 8f2e ed3d 113c 81bd 8a97 babd
000000a0: 6429 9bbe 7216 f8bd 5131 36be 9250 e4bd
000000b0: aa07 2d3e c180 55be e86e bebd bcee 59be
000000c0: d9a4 88be f182 d43d d9bf 103e 5391 ddbd
000000d0: 9cd0 afbd f9e0 033c 9068 9abe 3ccb 94be
000000e0: a73d 01bd 205a 82bb fca9 82be 4eb4 81be
000000f0: 0911 0cbc 4830 f6bd fec1 e4bd 2f79 93bd
00000100: 9aa8 833d 1453 ea3d 48a1 8ebe aec8 0ebe
00000110: 7b96 ed3d 9704 1fbb 4fe3 583e ba4d 8cbd
00000120: 68ba a63c 301f 24be 303e fa3c fa47 d43d
00000130: fba6 7dbe 9fb3 a039 f181 69be ddd9 9abc
00000140: b0ef 56be 54db d43d 31ff 41be e800 633d
00000150: ee6f fa3d 8aa7 463d f288 68be 0b87 6ebe
00000160: 8985 313d 4167 523e de1b 74be 475e 9e3e
00000170: 41d1 42be dfb3 583e d5fb 8ebc f14b 0c3e
00000180: f645 21be 9835 d6ba ccf8 3f3e da15 ea3d
00000190: 119d 7fbe 58e3 8f3d 0f01 1ebe 0cc3 70be
000001a0: 26cc 60be 9df7 d7bd 116c fbbd f431 abbe
000001b0: ef8f 603e e41d b2bd e44d b3bd 3f32 3abe
000001c0: 0b35 84be 745f 5e3b ca05 8a3e bace 67be
000001d0: 9c6b 0fbe 2005 6f3b f9cb d2be cccb 2fbe
000001e0: 9e6f 1cbe c0dd 2bbd 63b2 6bbe 99d4 0cbe
000001f0: c7d0 333a 5215 c63d 3efd b8bd 6d24 fbbd
00000200: 70a3 f83d fc92 d8bd 2bd6 4cbe e68e 67be
00000210: ab81 a53e ef22 063d 3594 263e aaa1 b1bd
00000220: 5212 93bd 1003 c4be c995 a83d 0b6c 733d
00000230: 82b3 a6be fc34 8f3d 210d 90be 4a41 a3be
00000240: 6bba 86be dcb0 083d 4488 90be 7d76 8b3d
00000250: 2007 873d 7298 873d c28e 0dbe 70d7 4cbe
00000260: 2505 4f3d afd0 b53c f294 46be ffa8 de3e
00000270: 8103 04be 702d 5d3e 6aba 593e b603 103e
00000280: e046 93be cba0 313d 55c1 033e e84d 913d
00000290: 242c 70be 4903 7d3e da2c c3bd 0c68 a4be
000002a0: b31e 0fbe aab5 07be 0876 36be 1eed 89be
000002b0: 804d 953e 9137 91be e016 a2bb 305e 95be
000002c0: d7bc 73be 0cb5 88bc 0375 963e 5afc a9be
000002d0: 9e94 a3be 24dc b73b 5d8a b9be 0474 b9bd
000002e0: 7365 8cbe b2fd 8b3d fd0a 3ebe bbd1 7ebe
000002f0: 792f 803d a0a6 803d 942a d83d ad12 a5be
00000300: 1dbd 913d ac4f 4c3d 1368 97be c58f 02be
00000310: ac44 7b3e f4cb c33c f35f 913e e227 c23d
00000320: 81e6 4abd 3dee a5be 2d6d 83bd 7541 483e
00000330: 0d69 74be 6181 a8bb 8f17 9fbd d857 07be
00000340: f8d5 f9bd 94d9 7f3d d98b 39be acd5 17bd
00000350: a2e2 c83d 45c3 943d c930 3dbe 8f8c 56be
00000360: 6c7a 933c 7aed 403e a27e 8bbe 9d78 dd3e
00000370: 0095 1abe 5c36 b13e 7021 743e 1a18 593d
00000380: 95d8 90be ba9b e7bc fb97 073e 5854 9ebd
00000390: 2540 94be d181 8b3e 08cf 96be b047 45be
000003a0: 4dcb 28be 8771 1dbe 5136 a0be b9da 37be
000003b0: 4ff5 773e 4e3d 41be a033 963d 873f 18be
000003c0: f61b 97be 0bdc aebd 4294 7a3e 749b 65be
000003d0: 272b 26be 4b6c 923d dce3 dcbe a37b 64be
000003e0: a4c5 aabe ba5a cb3d 22b6 15be 0ec0 f7bd
000003f0: 377f 063d 5641 93bd c21d f93d 7906 9bbe

conv1.nn.fc2.bias f4 [6]
-0.08733123 0.080775894 0.039427646 0.086950675 -0.103105985 0.04665154
00000000: b7da b2bd d56d a53d e27e 213d 3213 b23d
00000010: 3b29 d3bd af15 3f3d
